DDPG/outputs/Area1Env/20211125-175035/models/checkpoint.pt (torch, 270167 bytes, 5 tensors)

linear1.weight f4 [256, 3]
000000 40 cd ed 3e 19 e8 ac bd a8 4c 4e be ac 48 22 c0
       0.46445656 -0.084427066 -0.2014643 -2.5356855
000010 b5 6f fa 3e b9 a2 cd bf a5 94 59 c0 18 8b 53 3f
       0.4891335 -1.6065284 -3.3996975 0.82634115
000020 8d bd 30 c0 ee 9f 04 c0 43 6e 47 3e 61 00 00 c0
       -2.7615693 -2.0722613 0.19475655 -2.0000231
000030 b4 0f 11 40 39 3a dc 3e a3 8d 90 3f 6a a1 31 3f
       2.2665834 0.4301317 1.1293224 0.69386923
000040 8c e7 fd bd ca a9 82 3f 14 eb 2b 40 14 d1 68 3e
       -0.1239768 1.0208066 2.686223 0.22736007
000050 13 ff 92 3f fa 94 15 3f ad af 2a bd c9 e9 14 be
       1.1484092 0.58430445 -0.041671444 -0.14542307
000060 2b 28 35 3f 09 34 b9 bc 91 d0 81 be 05 87 20 40
       0.70764416 -0.02260782 -0.25354436 2.508241
000070 40 cb 4a be 02 98 14 3f 1f b1 ba bf 6e e9 bd 3e
       -0.19804096 0.58044446 -1.4585303 0.37092155
000080 0d 2c a1 bf a7 e5 88 bf b0 e5 0f bd ca 7c f1 be
       -1.2591568 -1.0695084 -0.035131156 -0.4716552
000090 9e d3 35 c0 bb 2e ad be 9f 60 a1 bf 16 72 93 3f
       -2.841041 -0.33824715 -1.2607611 1.1519191
0000a0 f6 21 3e bd e5 1f d6 3e 0a b7 6f 3f 2b d8 32 be
       -0.046419106 0.4182121 0.9363867 -0.17465274
0000b0 d8 dc 55 3f 5d f2 42 c0 e0 5b 9e be 89 00 85 bf
       0.83540106 -3.0460427 -0.3092947 -1.0390788
0000c0 c8 95 f7 3f 37 0f 8f 3e ff e7 a1 3f 99 7b 0e c0
       1.9342585 0.27941296 1.2648925 -2.2262938
0000d0 1c ce f9 3d a1 b2 00 c0 e3 82 42 3f a3 3c 04 be
       0.12197515 -2.0109026 0.7598097 -0.12913756
0000e0 ad bf 43 3f 83 26 ea bf f8 0f 82 3e 03 1f c1 bf
       0.7646435 -1.8293003 0.25402808 -1.5087589
0000f0 c7 66 d6 3f 0a 84 4d be bf 83 65 3f 7a 04 96 3f
       1.6750115 -0.200699 0.89654154 1.1720116
000100 93 c9 01 be 46 9d 39 3f 0e 25 e6 bf 4b d5 87 3e
       -0.1267455 0.72505605 -1.7980058 0.26529917
000110 54 05 0e c0 ba 22 d8 bf 57 60 92 3d 87 3e 90 bf
       -2.2190752 -1.6885598 0.071472816 -1.1269082
000120 d2 f5 f0 bf 3b 76 d5 3d a7 39 c7 bf ff 5a bf bf
       -1.8825018 0.10422941 -1.5564469 -1.4949645
000130 20 c2 9d 3c 73 60 1d bf 9d 18 df be a5 1c 0d bd
       0.019257605 -0.61475295 -0.43573466 -0.034451146
000140 52 e2 5c be 2e 0d 17 3e 1c b9 8a be e8 f2 e8 be
       -0.2157071 0.14751121 -0.27094352 -0.45497823
000150 f5 aa 52 c0 d9 78 91 3c 38 f3 df bf 00 1d 99 3f
       -3.2916844 0.01775782 -1.74961 1.1961975
000160 fb c6 28 3e 7d e8 8f 3f 27 d2 da bf 38 2b 0f 3e
       0.16482155 1.1242825 -1.7095383 0.1398133
000170 5a d5 bb bf b8 3a 8a bf b3 e5 56 be ec a1 6c be
       -1.4674485 -1.079917 -0.20986061 -0.23108643
000180 73 79 17 40 6f 5e 09 3f 15 9e c2 3f 50 45 05 c0
       2.3667877 0.5365972 1.5204493 -2.0823555
000190 14 2c 28 be c0 82 3b bf 89 81 5f c0 a5 5e e6 be
       -0.16423064 -0.73246384 -3.4922812 -0.44994083
0001a0 3d 8c b3 bf b8 8a 0c 40 52 99 56 3e 5a f5 a9 3f
       -1.4027172 2.1959667 0.20956925 1.3278
0001b0 a4 60 d5 bf 1f 8e 5a 3e e9 d2 cb bf 87 15 0e 40
       -1.6670117 0.21343277 -1.592374 2.220064
0001c0 16 94 55 be 34 dd f3 3e d4 7b 62 bf 78 f3 2b bd
       -0.20857272 0.47629702 -0.88470197 -0.041980237
0001d0 d2 f6 8a be 2c c3 16 c0 56 31 c1 3d ef 1e e7 bf
       -0.27141434 -2.3556623 0.09433238 -1.8056315
0001e0 39 72 ee bf 17 78 b3 3e 1d 90 11 c0 73 8c 2e 3e
       -1.8628608 0.3505256 -2.274421 0.17045765
0001f0 76 57 47 be 02 57 2a bf 7d fb 9d 3f 69 20 a0 bd
       -0.19466957 -0.66539013 1.2342373 -0.07818682
000200 dc a7 1a 3e 55 2f ee 3f 5c 01 25 be 69 58 67 3f
       0.15103096 1.8608195 -0.161138 0.9036928
000210 fe b5 9a bf 7f ff 69 bd 2c 4c cb be f7 f2 ee bf
       -1.208679 -0.057128426 -0.39706552 -1.8667897
000220 da 1f 2a 3e 28 a2 dd bf 80 8e ec bf 70 19 1f 3e
       0.16613713 -1.7315111 -1.8480988 0.15537047
000230 49 7e af bf 02 4a af 3f 4d 50 fa bd 8c 74 32 3f
       -1.3710414 1.369446 -0.122223474 0.69709086
000240 e6 02 8d 3f 5d 82 8d bc bf 30 c5 3e 56 3a d7 bf
       1.101651 -0.017274076 0.38513753 -1.6814678
000250 63 67 31 be 80 ee 24 bf 2e c8 d7 3f 2e 60 5e 3e
       -0.17324595 -0.6442642 1.6857965 0.21716377
000260 ba c7 8f 3f 80 f5 ad 3f 86 bc 51 be 80 5a 44 3f
       1.1232827 1.3590546 -0.20482072 0.7670059
000270 94 7a c0 3f 0a cd a3 3e 6c fd 7e 3f 37 f2 ce 3f
       1.5037408 0.3199237 0.9960544 1.6167668
000280 ae 9b df 3e 44 78 7e 3f af 5c 20 c0 d4 ba 39 be
       0.43673462 0.9940226 -2.505657 -0.18137676
000290 a8 15 92 bf 42 fd 31 c0 63 3c b8 bd 28 c5 37 bf
       -1.1412859 -2.7810826 -0.08995893 -0.7178521
0002a0 ec 0e 1d c0 a6 4b 2c 3e 61 5f d6 bf 2f ab f0 3f
       -2.4540358 0.16825733 -1.6747857 1.8802241
0002b0 25 53 1e 3f 1c 52 8f 3f 68 77 18 40 cb dc 15 3f
       0.6184562 1.1196933 2.382288 0.5854003
0002c0 cf cf 88 3f bb c6 19 c0 8b cc 78 be 51 e6 c3 be
       1.0688418 -2.4027545 -0.24296777 -0.38261655
0002d0 cd c9 8f bf c4 3d 68 bd c4 77 6d bf 39 3f 03 c0
       -1.123346 -0.05669953 -0.9276087 -2.0507338
0002e0 f8 04 71 be b5 d6 a7 bf a0 7c 4d bf 74 04 fb 3e
       -0.23537052 -1.3112398 -0.8026829 0.49026835
0002f0 5b a7 d8 3e b7 f5 df be 92 d0 62 be 82 c6 5c 3e
       0.42315182 -0.43742153 -0.22149876 0.215601
000300 7c b3 99 bf 0a 4c 8b bd 9d f3 58 bf 09 3e 1f bc
       -1.2007899 -0.06801613 -0.84746724 -0.00971938
000310 c7 ae 96 bd 64 6f 14 bd 55 1f 91 40 42 e2 17 3f
       -0.07357555 -0.036239043 4.5350747 0.5932962
000320 1d 92 cf 3f e8 88 9d be 72 84 ae bc 74 84 3d bd
       1.6216465 -0.30768514 -0.02130339 -0.046268895
000330 3a 74 0c 40 d8 29 45 be 63 9e 46 3f af c7 09 40
       2.194594 -0.19254243 0.7758543 2.1528127
000340 6c de 66 3e c2 f2 55 3f 07 e8 12 40 35 b0 f6 3e
       0.22545785 0.83573544 2.2954118 0.4818131
000350 0d b3 91 3f 01 90 94 bf c7 37 d0 bd 11 e1 25 bf
       1.1382767 -1.1606447 -0.10166889 -0.6479655
000360 97 8d 1a 3f 40 14 56 be 85 80 a9 bc ba 9a 3d c0
       0.603723 -0.20906162 -0.020691166 -2.9625688
000370 98 9a 49 3e 48 3d eb bf 70 0c 0f c0 ff 3e 2c be
       0.19687879 -1.8378077 -2.2351341 -0.16820906
000380 ab 3d 46 bf b1 0a 73 3f 41 d6 1c be b2 77 50 3f
       -0.7743785 0.9493819 -0.15316106 0.8143264
000390 ec cc f4 bf c3 82 46 3e 31 52 cf bf 59 45 c1 bf
       -1.9125037 0.19385819 -1.6196958 -1.5099288
0003a0 92 b3 5d be ce fc ac bf 44 59 0e c0 1a 76 7e 3e
       -0.21650532 -1.351465 -2.2241983 0.2484974
0003b0 d9 97 01 c0 14 f7 b2 3f 5f d1 7a be 73 8f a0 3d
       -2.024893 1.3981652 -0.24493931 0.07839861
0003c0 e0 08 ee be 3c a1 c2 3e c6 01 d1 bf ab 2f a6 bf
       -0.46491146 0.38013637 -1.6328666 -1.2983297
0003d0 21 61 40 be 90 5a 24 bf a9 75 ae 3e 8b 0a c9 bd
       -0.18787052 -0.6420069 0.34074143 -0.09816464
0003e0 53 57 bc 3e 2b f4 1b 40 0a 36 de 3e 0b d2 95 3f
       0.36785373 2.4367778 0.43400604 1.1704725
0003f0 1d 07 d6 bf 50 59 25 3e 34 54 15 bf 2b e9 e3 be
       -1.6720921 0.16147351 -0.5833161 -0.4451383

linear1.bias f4 [256]
000000 f5 e4 e4 bf 55 a0 6b bf 2c fb 82 bf be 4f 9e bf
       -1.7882372 -0.9204152 -1.0232902 -1.2368085
000010 ce 69 b9 bf 19 67 e7 bf 11 8a 81 bf e0 82 e3 bf
       -1.4485414 -1.8078338 -1.012026 -1.7774315
000020 db e7 f9 bf b7 b7 20 bf ec 22 e0 bf 99 91 42 bf
       -1.9523882 -0.62780327 -1.7510657 -0.76003414
000030 26 c7 71 bf c3 07 f2 bf 43 48 b1 bf 62 85 05 bf
       -0.944445 -1.8908619 -1.3850178 -0.5215665
000040 a2 3b 99 bf 37 ff 9e bf 4d 77 d4 bf 08 7c 91 bf
       -1.1971323 -1.2421635 -1.6598908 -1.1365976
000050 54 63 04 c0 61 d5 e9 bf c0 81 9f bf 03 64 a9 bf
       -2.0685625 -1.8268243 -1.2461472 -1.3233646
000060 31 f4 5a bf f0 e8 c5 bf 13 00 7c bf c4 ad fa bf
       -0.85528857 -1.5461712 -0.98437613 -1.9584279
000070 8e 99 36 bf 6e fc b7 bf 17 29 b9 bf a4 e3 1e bf
       -0.71328056 -1.437391 -1.4465665 -0.620661
000080 f8 39 ff 3f 52 5e ea 3e c5 b1 4d bf 39 7d 9b bf
       1.9939566 0.45775086 -0.8034938 -1.214759
000090 9e a2 6c bf f4 91 d1 bf e8 bf 43 bf 32 5b 68 bf
       -0.92435634 -1.6372666 -0.764647 -0.90764153
0000a0 52 7a ac bf 3d 79 a1 bf 1c ef ae bf 59 28 f1 bf
       -1.3474829 -1.2615124 -1.366672 -1.8840438
0000b0 1c 1e 75 bf 2f f5 a2 bf c1 20 80 bf e0 eb a4 bf
       -0.9574907 -1.2731074 -1.0009996 -1.2884483
0000c0 64 2c e3 bf b5 b7 31 3e bf e1 41 bf 0e 76 dc bf
       -1.7747922 0.17355235 -0.75735086 -1.7223527
0000d0 62 59 95 bf a5 26 a0 bf a4 2a 32 3f 62 cf 91 bf
       -1.1667902 -1.2511793 0.69596314 -1.1391413
0000e0 aa 01 63 bf b4 58 bf bf f8 a8 ab bf 66 b8 5c bf
       -0.88674414 -1.4948945 -1.341094 -0.8621887
0000f0 d6 20 76 bf 76 ce f4 3e 06 55 29 40 fa 55 a2 bf
       -0.96143854 0.47813767 2.6458144 -1.2682488
000100 f1 97 49 bf 47 df c6 bf 0b 9b 84 3f 48 10 8a bf
       -0.7874747 -1.5536889 1.0359815 -1.0786219
000110 7f d8 ba bf ec 9f ab bf 5d 18 8c bf 1a 8c 8f bf
       -1.4597319 -1.3408179 -1.0944935 -1.1214631
000120 c1 49 e6 bf 3c 34 8e bf 38 69 0d 3f 5b 5b ce bf
       -1.7991258 -1.1109691 0.55238676 -1.612163
000130 8f f5 99 bf 1a d8 cd bd 94 36 98 bf 94 29 00 c0
       -1.2028064 -0.10050984 -1.1891656 -2.0025377
000140 76 00 dc bf 2d 03 07 be af 4c c8 bf 38 43 72 bf
       -1.7187641 -0.13184805 -1.5648402 -0.9463382
000150 82 f0 f3 bf f7 19 cb bf ff ca 97 bf cd 02 a1 bf
       -1.9057772 -1.5867299 -1.1858824 -1.257898
000160 2a 73 01 c0 10 bf fc bf d6 ab 29 bf e4 de 66 bf
       -2.022654 -1.9745808 -0.66277826 -0.90183854
000170 07 14 36 bf 2c 93 94 bf 15 2e 3c bf 3b c5 bb bf
       -0.7112431 -1.1607413 -0.73507816 -1.4669565
000180 93 86 59 bf f4 7e 6c be 19 a6 9a bf 67 21 f7 bf
       -0.8497097 -0.23095304 -1.2081939 -1.9307069
000190 9e 0d d9 bf 1b 8e a1 bf 8a 1e 60 bf c9 d9 32 40
       -1.6957281 -1.2621492 -0.875466 2.7945426
0001a0 81 8c 77 bf 4d 87 f0 bf c1 4e bc bf 5a 99 82 bf
       -0.96698767 -1.879129 -1.4711534 -1.0203049
0001b0 d0 e3 a2 bf 71 95 17 bf 27 29 8f bf 78 6b aa bf
       -1.2725773 -0.59212404 -1.1184434 -1.3314047
0001c0 f9 1e 06 bf 4c 61 09 bf d4 a4 9a bf 61 8f 76 bf
       -0.5239101 -0.5366409 -1.2081552 -0.9631253
0001d0 04 cb 07 bf 63 4a b6 bf fa ad 63 bf a3 f0 ba be
       -0.5304415 -1.4241451 -0.8893734 -0.36511716
0001e0 a8 32 fd be 76 99 e0 be 55 b4 9e bf 69 a2 02 be
       -0.4945271 -0.4386708 -1.2398783 -0.12757267
0001f0 fe 7f a2 bf e4 c4 f5 bf c0 44 37 bf d9 66 a8 bf
       -1.269531 -1.9200711 -0.7158928 -1.3156387
000200 74 d5 a9 bf be 97 bb bf 3a bf 04 3e f3 74 a6 bf
       -1.3268266 -1.4655683 0.12963572 -1.300444
000210 d2 a6 9c bf eb 2e d7 bf 2b c3 4b bf a4 a8 95 bf
       -1.223841 -1.6811193 -0.7959468 -1.169209
000220 1c ae d7 bf 7f d8 87 bf 1c e3 24 bf f8 47 e5 bf
       -1.6850009 -1.0612944 -0.6440904 -1.7912588
000230 87 c8 be bf dd 5c 85 bf 56 d3 b5 bf 2a fb 0c c0
       -1.4904946 -1.0418965 -1.420512 -2.2028298
000240 e6 00 92 bf 31 26 ad bf 3e 4d bc bf 88 b4 a4 bf
       -1.1406524 -1.352728 -1.4711072 -1.2867594
000250 1c 14 da bf 2b b7 39 3f 2b 96 86 bf 5e ee fb bf
       -1.7037387 0.7254512 -1.0514578 -1.9682119
000260 52 cc cf bf 1c 01 38 be 91 60 af bf 54 48 a9 bf
       -1.6234229 -0.17969173 -1.3701345 -1.3225198
000270 2d 5b 3a bf 05 61 9c bf 2d 3e be bf c4 a9 e2 bf
       -0.72795373 -1.2217108 -1.4862725 -1.7708058
000280 e2 29 87 bf 83 4d 97 bf 53 4b 56 bf 3e 2d b1 bf
       -1.0559657 -1.182053 -0.83708686 -1.3841932
000290 8e df 50 bf 94 b5 1d bf 50 a2 fa bf 52 80 d7 bf
       -0.8159112 -0.6160519 -1.9580784 -1.6836035
0002a0 3b f2 91 bd 55 90 9c bf 5f cf 0b bf 69 1f 41 bf
       -0.0712628 -1.2231547 -0.546133 -0.75438553
0002b0 d8 73 90 be 9a bc 52 bd 63 ce b7 bf fb 7b a0 bf
       -0.28213382 -0.051449396 -1.4359859 -1.2537836
0002c0 4e 83 df bf 20 01 9b bf 24 0c bf bf c0 1d b4 bf
       -1.7461946 -1.2109718 -1.492558 -1.4071579
0002d0 94 61 13 3f 77 c5 97 bf 2b ef f1 bf 2b 39 93 bf
       0.5757077 -1.1857136 -1.8901113 -1.1501821
0002e0 2e 8f ae bf 90 d2 05 bf 97 14 30 bf 3a 04 fc bf
       -1.3637445 -0.5227442 -0.6878142 -1.968879
0002f0 ec 16 26 be e4 f5 40 bf d9 d4 5e 3f 9b 5e f3 bf
       -0.16219682 -0.753752 0.8704353 -1.9013246
000300 48 3b 32 bf b2 fc 6a bf 99 bb 6d bf 28 aa c7 bf
       -0.69621706 -0.9179183 -0.92864376 -1.5598803
000310 4b 8b 7c bf d4 2f 4f bf c6 b0 62 bf ff ce 58 bf
       -0.98650044 -0.80932355 -0.88550985 -0.8469085
000320 ec 77 3e bf 81 68 7f 3f ef f8 fa bf df 48 a4 bf
       -0.74401736 0.99768835 -1.9607219 -1.2834738
000330 45 cb 9e bf d1 23 05 3f b6 1b 6c bf 53 56 14 3f
       -1.2405783 0.52007776 -0.92229784 0.5794422
000340 a2 9b e4 bf c2 96 a1 bf 4b e4 9f bf 5b 4c 6b bf
       -1.7859995 -1.2624133 -1.2491544 -0.91913384
000350 e6 7e 00 c0 5f 78 ef bf dd 86 03 c0 54 61 ef bf
       -2.0077453 -1.8708609 -2.0551064 -1.8701577
000360 6c 94 a3 bf f4 51 c9 be a1 cb 82 bf 51 00 84 bf
       -1.277967 -0.39320338 -1.0218393 -1.0312597
000370 db df 46 be 7d 1c 09 c0 8e 9f 9a bf 61 5e c7 3e
       -0.19421332 -2.1423638 -1.2079942 0.38939193
000380 58 c4 99 bf 93 69 b7 bf e4 e2 6b bf 97 cb f4 bf
       -1.2013044 -1.4329094 -0.9214308 -1.9124631
000390 0c 4d c7 bf a1 ba be bf 87 0a 3d bf cc e8 33 3f
       -1.5570388 -1.4900705 -0.7384419 0.70277095
0003a0 44 47 cf be 47 d5 a9 bf 6e 1e 8d bf f5 5b a0 bf
       -0.4048406 -1.3268212 -1.1024911 -1.2528063
0003b0 27 33 23 3f 78 63 99 bf 36 fe aa bf 23 33 a5 bf
       0.6374993 -1.198348 -1.3358829 -1.2906231
0003c0 ad 44 28 bf ab ca 9c bf 70 d5 b6 bf b1 21 40 bf
       -0.6572979 -1.2249349 -1.4283886 -0.7505141
0003d0 97 f1 bd bf 24 80 7a bf e6 2a 4f bf 52 21 af bf
       -1.4839352 -0.9785178 -0.8092483 -1.3682044
0003e0 d6 28 2f 3f fc f9 70 bf 20 d0 81 bf e0 14 03 bf
       0.68421686 -0.94131446 -1.014164 -0.5120373
0003f0 64 5b 5c bf ed 74 89 bf 0f 42 af bf ce 15 2c bf
       -0.8607695 -1.0738808 -1.3692034 -0.6722077

linear2.weight f4 [256, 256]
000000 4b b4 6d be 93 cc ad bf 71 92 75 bf dc 09 0b bf
       -0.23213308 -1.3578056 -0.95926577 -0.5431192
000010 1c b8 2a 3e d7 44 f1 3e dd f5 e3 3d 9c 5b bc 3e
       0.16671795 0.47122833 0.11130879 0.36788642
000020 0a 86 a5 3e 9c 82 57 3e e5 b4 0d bf f4 98 70 bd
       0.32328826 0.21045917 -0.5535415 -0.058739617
000030 47 50 7a 3e 06 c2 d7 3d c9 19 8d bd 95 48 85 be
       0.24444686 0.10535054 -0.06889684 -0.26031938
000040 c5 d0 f6 3e ad 33 b6 be fc f7 99 3e d6 5b 60 be
       0.48206154 -0.355863 0.3007201 -0.21910033
000050 35 06 47 3f 4c 31 85 3e b2 db 29 bf 56 68 fe bd
       0.77743846 0.26014173 -0.66350853 -0.12422244
000060 71 eb 5d bd b5 46 16 3f 40 0b b5 3e 77 e3 63 bc
       -0.054179613 0.5870164 0.35360146 -0.013909212
000070 dc 88 57 bf e6 72 79 3c 40 6e 65 3d bc a4 21 3e
       -0.84193206 0.015225148 0.056013346 0.15785497
000080 c6 d5 04 3c 93 55 ae bd f3 07 6e be f4 ca bf 3e
       0.008107608 -0.08512416 -0.2324522 0.37459528
000090 30 40 8d be 2b cd 77 3e f0 15 db be e8 2c a4 3e
       -0.27588034 0.24199359 -0.42790174 0.3206551
0000a0 7c 13 f1 be 39 4f 39 3f 99 7d 02 3f cb e9 30 be
       -0.47085178 0.7238651 0.50972897 -0.17276685
0000b0 5e bd aa be fa 77 54 bf 31 8b 41 be 20 bf 44 3e
       -0.333476 -0.8299557 -0.18900754 0.19213533
0000c0 79 8c 4e 3d 99 19 8f 3d a6 fd ab bd fc 88 dc be
       0.050426934 0.06987304 -0.08397989 -0.4307326
0000d0 35 16 ad bd ef fc c9 3c 3b 40 63 bf 59 70 ce 3d
       -0.08451501 0.024656741 -0.8876988 0.10080022
0000e0 ee 05 bf be 7d e8 6b 3e 07 da 5b 3e f8 d7 59 3d
       -0.37309211 0.23037906 0.2146989 0.05318448
0000f0 d5 3e b2 bd 7e bb 4a bf 35 85 17 bf c8 56 81 bc
       -0.087033905 -0.7919234 -0.5918763 -0.01578845
000100 af b4 ef 3e 46 56 06 bd 53 52 a6 3f ce 92 b8 bd
       0.46817538 -0.03279712 1.2993873 -0.09012376
000110 87 73 19 bf f3 7b ba 3e bd 1e 80 3e f1 b4 e5 bd
       -0.59941906 0.3642269 0.2502345 -0.112161525
000120 cd b7 2f be 99 af 9e bf 89 c4 86 bd e5 9f 93 3e
       -0.17159958 -1.2397338 -0.06580455 0.28832927
000130 ed fd 7a be de f6 ce be da 5a 30 bf 19 4c 66 bd
       -0.24510927 -0.4042272 -0.6888863 -0.056224916
000140 1c 5b 01 bf 03 ff 35 3e 62 9e f4 3e 8f e0 0e 3e
       -0.50529647 0.1777306 0.47777086 0.1395285
000150 d8 a0 50 bf 8b da 3e bb 21 5a 80 3d a1 5a 80 3e
       -0.8149543 -0.002912196 0.06267191 0.25069144
000160 28 ec 3d 3e 8c b7 43 3e 43 25 90 3e 88 74 91 bf
       0.18547118 0.19112986 0.28153428 -1.1363688
000170 fe 16 08 be 87 3c 19 3f de 39 af bd 7c e0 c4 bc
       -0.13290021 0.5985798 -0.08555959 -0.024032824
000180 35 fb 23 3e a9 5a cf 3c 0d 20 2a 3e a1 4e 4a be
       0.16013797 0.025311785 0.16613789 -0.19756557
000190 d7 af 53 3e e4 fb 2f 3d c3 28 ed 3d cb 70 97 3e
       0.20672546 0.04296483 0.1158004 0.29578242
0001a0 21 0b 67 3d fa f9 d3 be 0f 83 02 3f 79 d0 5e be
       0.056407098 -0.41401654 0.5098123 -0.21759214
0001b0 74 6d c5 3d da 25 9a 3c 97 22 2f be 14 02 0c 3e
       0.09640017 0.018816877 -0.17103039 0.13672668
0001c0 e7 c7 4a 3d 4c 7c 24 3f e8 b6 ea 3e 37 38 4d 3e
       0.049507048 0.6425216 0.4584267 0.20040976
0001d0 1a 9b 8c 3e 54 c6 dc 3c 81 dd e1 be 21 f7 be bd
       0.27462083 0.026950039 -0.44114307 -0.0932448
0001e0 c1 2a 55 3d 51 9a b9 3e ac 11 8e 3f 21 e7 57 bf
       0.052042726 0.36250547 1.1099143 -0.8433705
0001f0 94 c6 58 bd 23 f0 6a be 2b 54 e4 3c 9f 81 9b 3e
       -0.052923754 -0.22943167 0.027872166 0.3037233
000200 76 fd 25 3f 42 0d 75 3e 90 f1 8f bc 92 64 b8 be
       0.64839876 0.23930839 -0.01757124 -0.3601423
000210 01 27 79 3e 2d bd be 3e 83 76 8c 3e 9c c8 e3 3b
       0.24331285 0.37253705 0.27434167 0.0069514047
000220 e3 6f 3e 3e 74 f0 46 3e ee 1e c6 bd 65 7d dd 3e
       0.18597369 0.19427663 -0.09673868 0.4325973
000230 33 c5 35 3f d6 3a 0e bf eb cd 34 3e 23 b7 0e 3f
       0.7100403 -0.55558527 0.17656676 0.55748194
000240 00 82 f2 3e 5c 98 e8 3e 20 8a 25 be 84 f4 86 be
       0.47364807 0.4542874 -0.16165972 -0.26358426
000250 2f 84 b9 3e 98 89 97 bf a0 a7 03 3d fa c8 93 3d
       0.3623366 -1.1838865 0.03214228 0.072160676
000260 20 44 cc 3d 32 78 b3 bd 76 c5 19 3f ef 20 0d 3d
       0.09973931 -0.0876316 0.60066926 0.034455236
000270 5f 93 31 3e 4c 3f a1 3e 5b 02 93 3f 33 0e 37 bf
       0.17341374 0.31493604 1.1485094 -0.7150604
000280 fa e3 39 3e b8 34 81 be f7 06 84 be a9 22 61 be
       0.18153372 -0.25235534 -0.25786564 -0.21985878
000290 02 8c 77 3e 3f 42 ae bf 8a 12 bb 3e 8e 74 32 3f
       0.24174502 -1.3613967 0.36537582 0.697091
0002a0 7d 8d 1b 3d a7 9c 68 bf e5 f7 fa 3e fc fc be bc
       0.03797673 -0.9086403 0.49017254 -0.023313992
0002b0 4d c1 86 3d 5c 33 83 bf 93 e4 1a bd 1f d8 de bf
       0.06579838 -1.0250049 -0.03781564 -1.7409705
0002c0 4c aa 0b bd b1 2d ac 3e 2c 5f 82 be 59 ca 9d 3e
       -0.034097955 0.3362861 -0.25463235 0.30818442
0002d0 64 e0 ba bf 75 35 72 3e c4 87 f0 3d 45 53 59 be
       -1.4599729 0.23653205 0.11744645 -0.21223171
0002e0 01 e0 5b 3e 6e 19 1f bd 4b 98 c9 bc 88 89 62 bd
       0.2147217 -0.03884261 -0.024608752 -0.05530694
0002f0 3a f8 27 3d c5 bc 10 3c 48 de b6 bf b8 1f 06 be
       0.04100821 0.008834069 -1.4286585 -0.13098037
000300 d6 81 2c 3e cb a6 b2 bf c4 29 c2 bf fe 49 5d 3f
       0.16846403 -1.3957151 -1.5168996 0.8644103
000310 9a 42 ef 3c 78 2c 3e 3d 3c 24 b3 bd 10 cc a1 3e
       0.029206563 0.046429127 -0.087471455 0.31601
000320 bf e9 98 bd 07 73 8e bb 9c 0c 00 bf 2c f6 09 3e
       -0.074664585 -0.0043472084 -0.5001924 0.13472813
000330 90 0a 8b be f1 02 8b bf 28 37 a0 3e 36 90 33 bf
       -0.27156496 -1.0860273 0.3129208 -0.70141923
000340 0d 66 41 bf 45 c2 42 3e fd a9 a3 3c f9 af a0 3d
       -0.7554634 0.1901942 0.019978518 0.07846064
000350 63 ec b2 3d 9d 1d 38 3f 90 3c 93 bd b7 3d c5 3d
       0.087364934 0.71920186 -0.07189286 0.09630912
000360 98 c4 7a 3d d1 b7 ab be 1b ae 1b 3e 5a 04 ac be
       0.061222643 -0.33538678 0.15203135 -0.3359707
000370 d3 4a ea 3d 41 0b 17 be 0a fb 44 bf cf c7 ee 3e
       0.11440053 -0.14750387 -0.76945555 0.46636817
000380 9d 40 92 3e 07 a2 9b 3e 48 e1 08 bc c5 3c 9d be
       0.2856492 0.30397055 -0.0083544925 -0.30710426
000390 e0 bd 8b bd 36 31 bc 3e e4 2e 63 3e 67 d0 8d bf
       -0.06823325 0.36756295 0.22185856 -1.1079224
0003a0 b1 27 0a 3d 61 38 27 be 63 0f af 3e 57 fe 39 bf
       0.03372926 -0.163301 0.34191427 -0.72653717
0003b0 94 c5 9a 3f 2e 1e 21 be 4a 6d 36 bf a7 9f 43 bc
       1.2091546 -0.15734169 -0.7126051 -0.01193992
0003c0 53 f3 66 3e 4c c1 41 3e fc b4 a6 3e 88 5d 2c 3e
       0.22553758 0.18921393 0.32559955 0.16832554
0003d0 3e a1 2f bd f4 ea 1a 3c 2f 39 13 bd 1f b5 a1 3e
       -0.042878382 0.009455431 -0.035943206 0.31583497
0003e0 cd df 3b 3f 8f 52 09 3e f9 2e 66 bc 8e 3c 92 3e
       0.7338837 0.134104 -0.014049285 0.28561825
0003f0 fc 39 ea 3e f1 b1 b3 3d e8 8b 08 3d 97 e8 ec bc
       0.45747364 0.08774174 0.03333655 -0.028919501

linear2.bias f4 [256]
000000 65 e2 e9 be e9 89 20 bf 33 24 21 bd 81 e5 cd be
       -0.45680538 -0.62710434 -0.039341163 -0.4021416
000010 5c db 3c c0 56 97 fd bd bf 92 a2 be e0 fc 3d bf
       -2.9508886 -0.12382381 -0.31752583 -0.7421398
000020 b8 84 08 c0 ff 44 cf bd df 0a 90 be fc 7f c8 bd
       -2.1331005 -0.10120582 -0.28133294 -0.09790036
000030 77 39 3a bd 64 18 85 be 6e 65 ee bd a1 18 fb bd
       -0.04546496 -0.2599517 -0.1164044 -0.12260557
000040 d2 03 07 be 55 2e d9 bc 28 f0 fb bd 36 b2 10 be
       -0.13185051 -0.02651135 -0.123016655 -0.14130482
000050 65 cb 5d bf b6 28 16 bf a4 95 5c bd 35 8f 85 bd
       -0.8663848 -0.5865587 -0.053853646 -0.06521455
000060 46 fd ca be 99 ac b9 bd 47 fb 0c bf 3f f8 be bf
       -0.39646357 -0.090661235 -0.5507092 -1.4919509
000070 44 b6 67 bd 7a 75 c2 bd dc 31 51 bd cd 82 0b bf
       -0.056570306 -0.09495063 -0.05107294 -0.5449646
000080 49 af 8a be 19 23 95 3f 38 6a cb be 3d d4 ad be
       -0.27086857 1.1651336 -0.39729476 -0.33950987
000090 ae 99 3e be e1 ec 6b bd 85 29 c4 bd c3 56 62 bf
       -0.18613312 -0.057598952 -0.09578232 -0.8841364
0000a0 1b aa e9 bd 45 f5 85 be 25 69 c6 bc 50 30 54 bc
       -0.11409398 -0.26163688 -0.024220059 -0.012950972
0000b0 a0 fa 2b 3e 69 dc bf bc b5 9d 3c bf a2 38 10 bf
       0.16794825 -0.02342053 -0.7367814 -0.56336415
0000c0 d5 8c 3f bd e7 d0 31 bf 5b e7 13 c0 08 7f 04 be
       -0.046765167 -0.69459385 -2.3109958 -0.12939084
0000d0 32 12 a8 bd fa d1 b9 bf b6 aa a3 be 03 9b 2a bf
       -0.082065955 -1.4517205 -0.3196618 -0.6664278
0000e0 19 9d 88 bd bc 9a 13 bf 71 53 7b be f5 1d 9d bf
       -0.06670589 -0.5765798 -0.24543549 -1.2274767
0000f0 5e 1a a1 bd b4 77 86 bd a5 68 0a bd 19 43 bd bd
       -0.07866357 -0.065658 -0.033791203 -0.092413135
000100 cd ed 21 bc 48 54 92 3d 01 fc df bd 54 42 87 be
       -0.009883356 0.071449816 -0.10936738 -0.26417792
000110 75 78 97 bd bc 1d 31 bd 2b ec 42 bd af 8a 8b bf
       -0.07396022 -0.043241248 -0.04758851 -1.0901698
000120 62 99 12 bf 1e 99 af bd e5 b1 83 bd 09 11 a3 be
       -0.57265294 -0.08574127 -0.06430415 -0.31848934
000130 cf 8a 66 be 3f 41 69 bd e5 4f 4a bc eb ec 18 bf
       -0.22513889 -0.05694699 -0.01234815 -0.5973651
000140 0c fa b4 be 40 dc c1 bd 1c 6d 5b bd b0 0f d0 be
       -0.3534702 -0.094658375 -0.05357085 -0.4063697
000150 d7 4f 00 bf 05 bb fa be a0 15 89 bb 2a 49 47 bc
       -0.50121826 -0.4897081 -0.004183486 -0.01216344
000160 47 d5 e1 bb 5d b1 2d bf 56 6b 99 bd e6 43 ce bd
       -0.0068918797 -0.6784876 -0.07491176 -0.10071544
000170 56 78 8d bd 0c 8c 50 bf 51 a8 68 bd d2 18 a7 bf
       -0.06907718 -0.81463695 -0.056801144 -1.305445
000180 84 74 d9 bd 00 54 fc be d5 70 0a be 9a 0d cf bd
       -0.10617927 -0.49282837 -0.13519605 -0.10110016
000190 a4 b3 4c bf 2e f9 25 bf ff c6 59 3c 3e 51 04 c0
       -0.7996161 -0.64833343 0.013292073 -2.0674586
0001a0 1e 99 d8 be 1e 73 04 bd 09 e3 9b bf 19 71 2b bf
       -0.4230432 -0.032336347 -1.2178661 -0.6696945
0001b0 c9 64 81 bd 97 32 8e bc b2 9f 01 bd 09 c1 75 bd
       -0.06318051 -0.017358107 -0.031646438 -0.059998546
0001c0 6c 25 0a bf 9c 5d 08 bd f7 4e 04 bf af d3 31 bd
       -0.5396335 -0.033292398 -0.5168299 -0.043414768
0001d0 ce c7 89 be 13 73 48 bf 8b 0e c7 3b ef 4f 68 bf
       -0.2691025 -0.7830059 0.0060747317 -0.9074697
0001e0 f7 79 ca bd 66 cf b1 bd b8 c3 6a be da 50 95 bf
       -0.09886544 -0.08682136 -0.22926223 -1.1665299
0001f0 2b 44 a6 bd 9a 44 a5 be 69 66 8e 3c 83 4e 51 bf
       -0.08118471 -0.322789 0.017382817 -0.81760424
000200 1c 95 ba bd f0 a0 b3 3b 98 f0 85 bc 7b 19 02 bf
       -0.091104716 0.0054818317 -0.016350076 -0.5082013
000210 be f3 43 3e 8e f0 51 bd cf 6a f5 bc e0 54 46 bd
       0.19135949 -0.0512548 -0.029958157 -0.048420787
000220 49 2c c1 bd a4 04 b3 bd 60 15 37 bd 77 9e b4 be
       -0.09432275 -0.087411195 -0.04469812 -0.3527715
000230 ab 07 cf bd 23 1c 8d bf a2 61 40 c0 2f 02 e5 bd
       -0.101088844 -1.1024212 -3.005959 -0.11182057
000240 08 aa cb bd 4a 8b bf be dd 05 47 be 01 58 7b be
       -0.0994454 -0.37410957 -0.1943583 -0.2454529
000250 ec 00 f3 be 36 a9 e0 bc 6f 88 43 bf 98 9e 83 bf
       -0.4746164 -0.027424436 -0.76380056 -1.0282774
000260 b2 e1 03 3c 6f aa e0 bd 3a 68 2a bd b2 c3 5c bd
       0.008049415 -0.10970008 -0.041603304 -0.053897567
000270 d4 eb 5f be 76 f4 e0 bc 13 f2 04 c0 d3 ab d5 be
       -0.21867305 -0.027460318 -2.077275 -0.41732654
000280 b8 f0 9e bd 6d 2e a0 bd 75 f5 99 bf 5e 46 e2 be
       -0.07760757 -0.07821355 -1.2028033 -0.4419431
000290 2a d7 81 bf db 91 88 bd 01 fa 64 bf e4 8b ed bc
       -1.0143788 -0.06668445 -0.89443976 -0.02899737
0002a0 fd 3b 3f bc 42 09 eb bd 96 7d a6 bf 38 7c 39 3c
       -0.011672017 -0.11476375 -1.3007076 0.01132112
0002b0 e4 27 93 bd 9f 23 c1 bd 81 6a fe be 50 2a 12 bd
       -0.07185343 -0.09430622 -0.4969063 -0.035684884
0002c0 2a ac 82 bd ba ac a0 bd a4 88 32 bd d9 fc 78 be
       -0.06380494 -0.07845445 -0.043587342 -0.24315204
0002d0 d8 c1 c9 bd 0c 32 c5 bd 01 a9 c2 bd 6e 4e bd bf
       -0.09851426 -0.09628686 -0.09504891 -1.478956
0002e0 d9 a2 81 bd c6 94 76 bd d9 77 02 bf 04 be 80 bf
       -0.06329889 -0.060200475 -0.50964123 -1.0057988
0002f0 f4 b6 70 bf a3 4c 9c bf 4a 88 2b bf 38 09 21 bf
       -0.94029164 -1.2210888 -0.67004836 -0.6290469
000300 42 5a 5a bf b0 cf b5 bd ba 28 c6 bd b8 b7 b7 bd
       -0.8529397 -0.08877504 -0.09675737 -0.089705884
000310 73 fc 3b bd df 4e df 3f 6d c4 1e bf 37 39 c9 be
       -0.04589505 1.7445945 -0.6201847 -0.39301464
000320 d9 e0 9f bd 16 08 dc be 1f 67 77 3e 36 de c6 bd
       -0.07806558 -0.4297492 0.24160431 -0.09710352
000330 43 ac 25 bd a9 a2 f0 3c 3d c1 25 bd 4c 8c 10 bd
       -0.040447485 0.029374437 -0.04046749 -0.035290048
000340 5e a6 79 bd 91 33 b6 bd ab 06 a6 bd 65 96 0c bf
       -0.060949676 -0.08896554 -0.081067406 -0.54916984
000350 f6 01 a4 bd 63 c9 21 3c 35 e8 20 bf 19 25 d0 be
       -0.080081865 0.0098746745 -0.6285432 -0.40653303
000360 1d 60 b3 bc 61 8a e7 bc 5d 06 44 c0 69 d8 08 bf
       -0.021896416 -0.028264226 -3.0628884 -0.53455216
000370 66 70 cb bf 97 8d 9b bf 22 e3 17 bf ec 61 4b bd
       -1.5893676 -1.2152585 -0.5933095 -0.049653932
000380 fa 8a 87 bc bc 87 2c be 1d 25 0b bf bf fb 5c bd
       -0.016545761 -0.16848654 -0.54353505 -0.05395102
000390 6f 00 2c c0 f6 bd 86 bd 7b 36 ec bc c3 a4 df bd
       -2.6875265 -0.06579201 -0.028834572 -0.10920098
0003a0 a7 ad 07 bf 14 5f 06 bf c8 3d 58 bf 44 62 c8 be
       -0.5299935 -0.5248883 -0.8446927 -0.3913747
0003b0 97 2c 26 bd 62 e0 a3 bd 6e ed 08 bf 58 38 ca bf
       -0.040569868 -0.08001782 -0.5348729 -1.5798445
0003c0 32 75 57 bf db e6 d5 bd d0 68 0e bf a3 ff 8f be
       -0.841632 -0.10444423 -0.5562868 -0.28124723
0003d0 44 6f d4 be 01 50 87 bf 90 e7 11 be 11 9b ba bd
       -0.4149114 -1.057129 -0.1424849 -0.09111608
0003e0 0e d8 da bd 63 bd 3e bd 30 81 8e bd aa 6e 51 bf
       -0.106857404 -0.046567332 -0.06958234 -0.81809485
0003f0 53 43 f5 bd e4 2b 9a bd 80 91 31 be a2 b6 0f bf
       -0.11975732 -0.07527903 -0.1734066 -0.5613805

linear3.weight f4 [1, 256]
000000 62 6f 92 bd 05 0f 5f bc 46 e0 82 be 39 fc 88 bd
       -0.07150151 -0.013614421 -0.25561732 -0.06688733
000010 72 16 05 3f 05 38 44 bd 72 32 c9 bd a2 f2 87 3d
       0.51987374 -0.047904987 -0.09824075 0.066380754
000020 55 22 26 3f 32 75 57 be 7c 94 72 3d 4a e6 29 bd
       0.64896137 -0.210408 0.059223637 -0.041479386
000030 18 1d 1e bd a1 c2 33 be 8e b5 56 3d c6 91 bc 3c
       -0.038601965 -0.17554714 0.052419238 0.023018729
000040 f1 f2 87 3c 3e 77 2a bd 5d 02 2b bd 4f 4d 66 be
       0.016595336 -0.041617624 -0.0417503 -0.22490428
000050 0e 9b 09 3e 81 57 06 3e ad a4 be bc af 8d 2b bd
       0.13438055 0.13119318 -0.023271883 -0.041883167
000060 c7 55 e8 3d 36 a7 20 bd f5 b7 a9 3c c8 51 1b bd
       0.11344486 -0.039221965 0.0207176 -0.03791979
000070 c6 3e 78 be 6d 54 63 be 51 a9 d1 bc 80 f0 36 3e
       -0.24242696 -0.22200175 -0.025593432 0.17865181
000080 fe 8d 4f be b3 a4 b5 bf 98 56 2a 3e bf 94 3c 3e
       -0.2026901 -1.4190887 0.16634595 0.18416117
000090 48 ce 6d be 75 3d 38 bd db 5e 23 3c 74 27 a7 bd
       -0.23223221 -0.044980485 0.009971346 -0.08161822
0000a0 42 eb 3c bd 49 1c 4c be a3 30 78 be 28 c3 71 3d
       -0.046122797 -0.19932665 -0.24237303 0.059024006
0000b0 32 3a cf 3d bf 15 83 3c d5 56 32 be cf 8e 85 bd
       0.10118522 0.01600158 -0.17415936 -0.06521379
0000c0 04 7d 2c bd 06 fb 7c 3d 85 3a a8 3f 1e 9a 82 be
       -0.04211141 0.061762832 1.3142859 -0.25508207
0000d0 f7 b5 75 bd 5a 4d a6 bd a9 97 53 be da 47 20 bd
       -0.05998799 -0.081202224 -0.20663323 -0.039131023
0000e0 59 28 d9 3d 8e f7 3d be fa b0 5d be 7b da 4e bd
       0.10603399 -0.18551466 -0.21649542 -0.050501328
0000f0 de 25 41 bd 64 d6 6a 3d b4 e7 2c bd 66 e5 27 3d
       -0.047155254 0.057333365 -0.042213157 0.040990256
000100 57 c2 2f bd e7 dd c4 bf 72 5a 34 bd b5 0a 53 be
       -0.042909946 -1.5380219 -0.044031568 -0.20609553
000110 7c b6 a0 bc a6 0e a2 bc 47 d0 70 3d 29 d7 f6 3d
       -0.019618265 -0.019782376 0.05879238 0.12052757
000120 9a 44 20 3d e2 8e 3a bd 03 c5 74 3d 08 6f eb 3b
       0.039127924 -0.04554642 0.059758198 0.007184867
000130 b8 9d 59 be e3 e1 62 3d 70 3e 73 3d 01 23 0b be
       -0.21251571 0.055391204 0.059385717 -0.13587572
000140 1f 93 76 bd 50 68 63 bc 36 a9 38 bd 34 51 05 3e
       -0.0601989 -0.0138798505 -0.045083247 0.13019258
000150 1d 56 05 3e dc 62 35 be 3f c9 3c bd 62 0b 87 3c
       0.13021131 -0.17713493 -0.04609036 0.01648492
000160 2f 89 50 ba a9 fd 5b be 77 e6 5d 3d cd ec 39 bd
       -0.0007955012 -0.21483482 0.054174867 -0.045391846
000170 e6 a3 45 bd 41 2d 6c be b5 86 2c bd f0 45 7a 3d
       -0.04825201 -0.23064138 -0.042120654 0.061101854
000180 b3 b5 71 3d 64 15 01 3e f2 db 70 3d e0 b3 6f 3d
       0.059011173 0.12605816 0.058803506 0.05852115
000190 2b bb 31 be ec 88 7a 3c bf 61 2d bd 54 b4 67 3e
       -0.17356555 0.015291434 -0.042329546 0.22627383
0001a0 f7 0f e9 3c 47 64 73 3d fb 84 05 be 30 16 56 be
       0.028449995 0.059421804 -0.1303901 -0.20906901
0001b0 50 3a 3d 3d 93 e8 31 bd 7c a9 2c bd 2f a6 a6 3d
       0.04619819 -0.04343469 -0.04215382 0.08137166
0001c0 59 88 23 3e 2b 28 27 bd 40 a0 33 be 81 65 35 bd
       0.15969981 -0.04080979 -0.175416 -0.044286255
0001d0 b4 b6 54 be 17 c8 f6 be e4 63 69 bd 57 f7 f2 bd
       -0.2077282 -0.4819953 -0.05698003 -0.118635826
0001e0 ee 48 b9 bc ae cb 0b bd b0 e9 c1 bd e4 39 2a bc
       -0.022617783 -0.03412979 -0.094684005 -0.010389779
0001f0 05 af 23 3c 25 86 30 be 93 21 70 be 28 98 6c be
       0.009990458 -0.17238672 -0.23450308 -0.23104918
000200 a6 8d 30 bd 29 48 39 bd 6b 3a 23 bd fe 43 48 3e
       -0.043103836 -0.045234833 -0.039850634 0.19557187
000210 c0 c7 90 3d d8 7c 29 bd d3 cb 1f bd 4a df 27 bd
       0.07069349 -0.041378826 -0.03901274 -0.04098443
000220 28 df 70 3d a8 92 8d 3c 55 c3 25 bd 84 38 d8 3b
       0.05880657 0.017281845 -0.040469486 0.006598534
000230 90 1b 2b bd a4 39 12 bd 34 bd b4 3e 05 3a 73 3d
       -0.041774333 -0.0356995 0.353006 0.059381504
000240 79 36 6e bf 2b 95 2a be 17 cb 56 be cc 65 6d 3d
       -0.9305187 -0.16658466 -0.2097591 0.05795841
000250 c4 91 71 3e 06 98 24 3d 23 99 af 3d bd 45 b2 bd
       0.23590761 0.040184043 0.085741304 -0.08704708
000260 ef dc 2b bd a8 0a 23 bd 9f f4 79 bd 77 88 37 bd
       -0.041958746 -0.039805084 -0.061024304 -0.044807877
000270 18 eb 01 3e 04 7a 36 bd 08 1c 2a 3e e0 99 bc 3d
       0.12687337 -0.044549957 0.16612256 0.09209037
000280 6b 99 39 bd d2 a5 b5 3d 3e be d6 bd 32 0d b3 bc
       -0.045312326 0.08869518 -0.104855046 -0.021856878
000290 3b 0e 9e bd 7d 57 e1 bc 19 f6 e1 be 28 42 6a bd
       -0.07717558 -0.027507538 -0.4413307 -0.057191998
0002a0 00 8e 2b bd 87 df 36 bd 2e 4e 4d bd 77 cb 2b bd
       -0.04188347 -0.044646766 -0.050123386 -0.041942086
0002b0 7e 85 3a bd 3e b8 83 bc bb c1 4c be ac 34 d4 3a
       -0.045537464 -0.016079064 -0.19995777 0.0016190014
0002c0 97 af 2d bd d2 3e 70 bd 32 52 73 bd 85 e3 45 be
       -0.042403784 -0.05865366 -0.05940456 -0.19325073
0002d0 51 f1 61 be ae eb 23 bd ca 31 40 bd c4 4a 53 bc
       -0.22064711 -0.040019684 -0.046922483 -0.0128962435
0002e0 62 f1 2f bd ae 18 09 3d 05 4d f1 be 4f 20 34 be
       -0.04295481 0.033470802 -0.47129074 -0.1759045
0002f0 f5 38 93 bc d6 eb 2f be c0 1a 99 3e d2 22 3f be
       -0.017971495 -0.17179808 0.2990322 -0.18665627
000300 2a ec 9e be 23 46 20 bd 42 ff 71 3d 9d b9 0e 3d
       -0.31039554 -0.039129388 0.059081323 0.034844983
000310 9c 63 31 bd 94 11 11 c0 8c a3 9a ba bc 20 a4 bd
       -0.043307886 -2.266698 -0.0011798008 -0.08014056
000320 37 96 2f bd 47 a8 0b 3e cc 90 66 3d b3 71 15 3b
       -0.042867865 0.13638411 0.056290433 0.0022803366
000330 45 6c 72 3d fe ad 0d bf 6f a8 35 bd f0 4c 6f 3d
       0.059185285 -0.55343616 -0.044350084 0.058422983
000340 1d d6 e7 3c ae 2d 52 bd 60 ff 61 be 17 d7 35 be
       0.02830034 -0.051313095 -0.22070074 -0.17757832
000350 dc 47 3f bd 18 60 cf be c9 ef 2c be 3a 97 d6 bf
       -0.04669939 -0.40503 -0.16888346 -1.6764901
000360 a9 22 68 bd 8f bf 35 bd 4c 72 b7 3e bc 97 8f bd
       -0.05667368 -0.044372138 0.3582939 -0.07011363
000370 40 4b 38 bd 64 9e 8c bd 75 cf 12 bc cf 93 4f 3d
       -0.04499364 -0.06866148 -0.008960594 0.05067807
000380 da 44 20 bd 28 97 80 be 16 7a 1a bc d7 a3 6d 3d
       -0.039128162 -0.25115323 -0.009428522 0.058017578
000390 a5 54 08 3f d5 df 2f bd 7f 23 2c bd 7b c4 d5 3c
       0.5325416 -0.042938072 -0.04202604 0.026094666
0003a0 59 35 39 be 36 d6 09 bd a8 34 52 bd 57 62 56 3e
       -0.18086757 -0.033651553 -0.05131975 0.20935951
0003b0 18 e9 6d 3d 6e 21 5f be 70 7c c3 3b ae 16 29 be
       0.058083624 -0.21790096 0.005965762 -0.16512558
0003c0 a2 0f 80 bd 5a 69 3c bd 43 79 ed be 61 90 0a be
       -0.06252982 -0.04599891 -0.46381578 -0.13531639
0003d0 8a 99 28 be c0 fd 2c bd 40 fe a4 bc 30 7e 74 3d
       -0.1646482 -0.042234182 -0.020140767 0.059690654
0003e0 de ec 40 bd a3 3c 27 bd ac e0 7b bc b2 a6 8a be
       -0.047100894 -0.040829312 -0.01537339 -0.27080303
0003f0 29 66 8c bc 1e d7 3c bd 2c 12 62 be 15 cf 85 bd
       -0.017138558 -0.04610359 -0.22077245 -0.065336384
