DDPG/outputs/Area1Env/20211125-202036/models/checkpoint.pt (torch, 270167 bytes, 5 tensors)

linear1.weight f4 [256, 3]
0.4561863 -0.0015820016 -0.19761792 -2.0655193 0.41864637 -1.6069851 -3.1719115 0.9940839
-2.4345336 -1.7941022 0.043821625 -1.9601405 2.2665834 0.4301317 1.1293224 1.1435937
-0.05656563 1.0313206 2.686223 0.22736007 1.1484092 0.5105425 -0.008345889 -0.14817928
0.676336 0.008783978 -0.22220036 3.7078948 -0.5755397 0.0596238 -1.2442007 0.32120875
-1.2233479 -1.2339722 -0.08137286 -0.64985824 -3.2141 -0.31323314 -1.4302227 1.1818494
0.004878151 0.38734612 1.3764194 -0.066295415 0.7985303 -3.348418 -0.1319898 -1.1727699
1.9342585 0.27941296 1.2648925 -2.4629683 0.31953004 -1.9236476 1.1762085 -0.11984255
0.73566747 -1.3453379 0.20559181 -1.6184212 2.1955438 -0.13390423 0.8617595 1.6328886
-0.08835537 0.7055132 -1.3219934 0.42823344 -2.2214017 -1.6119552 0.103711754 -1.0854573
-1.8740185 -0.15997429 -1.7670707 -1.5236666 -0.018204223 -0.57218975 -0.40804994 0.0077990205
-0.19158752 0.47122553 -0.23771268 -0.5765067 -2.8981116 0.12166614 -1.3589777 1.1961975
0.16482155 1.1242825 -2.0758345 0.23434766 -1.4959793 -1.8494416 -0.37218228 -0.28345934
2.8824863 0.19072333 1.5669236 -2.7726095 -0.10217972 -0.5210354 -3.992818 -0.12915282
-1.4993205 2.1959667 0.20956925 1.3278 -1.6317072 0.19562835 -1.3762796 2.7867117
-0.12128158 0.37411535 -0.8392641 0.009424515 -0.23139647 -2.7085958 0.3994506 -1.8343465
-1.388406 0.4217935 -2.295381 -0.16189066 -0.23773089 -0.49382728 1.3952825 -0.03683641
0.29271367 2.3524964 -0.087010264 0.9085686 -1.396133 -0.0091436785 -0.44621572 -1.5371319
0.07738231 -1.840744 -1.967018 0.11247859 -1.1341504 1.862022 -0.052091938 0.6680846
1.1011602 0.005441666 0.3821966 -2.3897889 -0.105714016 -0.40411812 1.6857965 0.21716377
1.1232827 1.9121766 -0.05953281 0.6926612 1.5037408 0.3199237 0.9960544 1.6167668
0.43673462 0.9940226 -3.4165325 -0.20467225 -1.0157378 -3.3068326 -0.115619205 -0.7952685
-2.0427349 -0.17790118 -1.9832689 1.9109967 0.5965256 1.1377696 2.4130418 0.56357664
1.0868217 -2.8699806 -0.08686688 -0.5318739 -1.2785051 -0.06960179 -1.0367441 -2.914348
-0.34722978 -1.2463274 -1.0539043 0.0027541239 0.4904077 -0.7736539 -0.12140238 0.36910683
-1.7723517 -0.11009883 -0.87307405 -0.25132748 -0.021364728 -0.2496215 5.102174 0.9936675
1.3949898 -0.34968424 -0.039089207 -0.19678709 2.6874177 -0.19955786 0.6998105 2.1528127
0.22545785 0.83573544 2.326334 0.44967452 1.170061 -1.3245091 0.012261112 -0.7032519
0.1661313 -0.18696809 -0.038287457 -2.557206 0.158166 -1.6365255 -2.8480265 -0.11174848
-0.5878353 1.4401835 -0.06457643 0.8459481 -2.2668755 0.26837254 -1.5646104 -2.1719038
-0.25919393 -1.3951256 -1.886299 0.324551 -1.9125346 1.3098143 -0.10960931 -0.03805542
-0.077603064 0.30639428 -1.6597599 -1.2497759 -0.07335186 -0.69994533 0.16833939 -0.04589523
0.22585283 2.4367778 0.43400604 1.1704725 -1.6104971 0.16343038 -0.585526 -0.6708562
00000000: 4091 e93e 2a5b cfba 5a5c 4abe 7831 04c0
00000010: d158 d63e b0b1 cdbf 9900 4bc0 487c 7e3f
00000020: 66cf 1bc0 24a5 e5bf 4e7e 333d e2e5 fabf
00000030: b40f 1140 393a dc3e a38d 903f 4761 923f
00000040: 5db1 67bd 5002 843f 14eb 2b40 14d1 683e
00000050: 13ff 923f eab2 023f 32bd 08bc 4fbc 17be
00000060: 5b24 2d3f adea 0f3c 7e88 63be 264e 6d40
00000070: 9256 13bf 1638 743d f841 9fbf 7975 a43e
00000080: aa96 9cbf cdf2 9dbf d0a6 a6bd 1c5d 26bf
00000090: d0b3 4dc0 1860 a0be 8a11 b7bf d746 973f
000000a0: e6d8 9f3b 3b52 c63e 832e b03f e4c5 87bd
000000b0: 7b6c 4c3f 7b4c 56c0 5628 07be 531d 96bf
000000c0: c895 f73f 370f 8f3e ffe7 a13f 46a1 1dc0
000000d0: 7199 a33e 163a f6bf 008e 963f 0370 f5bd
000000e0: b454 3c3f 0834 acbf a986 523e 6d28 cfbf
000000f0: ca83 0c40 311e 09be 459c 5c3f 7e02 d13f
00000100: a9f3 b4bd 839c 343f 1437 a9bf 6a41 db3e
00000110: 722b 0ec0 8c54 cebf d466 d43d 44f0 8abf
00000120: d7df efbf 4dd0 23be 5f2f e2bf 8207 c3bf
00000130: 0621 95bc 077b 12bf eceb d0be ed8e ff3b
00000140: 852f 44be 7944 f13e f46a 73be f195 13bf
00000150: a97a 39c0 192c f93d fbf2 adbf 001d 993f
00000160: fbc6 283e 7de8 8f3f 79da 04c0 d5f8 6f3e
00000170: 407c bfbf 81ba ecbf ad8e bebe 9521 91be
00000180: a87a 3840 fa4c 433e f490 c83f 6f72 31c0
00000190: 9a43 d1bd 9362 05bf 558a 7fc0 a340 04be
000001a0: bce9 bfbf b88a 0c40 5299 563e 5af5 a93f
000001b0: c8db d0bf cc52 483e ee29 b0bf 7c59 3240
000001c0: 7a62 f8bd 0c8c bf3e 03da 56bf 4869 1a3c
000001d0: 32f3 6cbe a259 2dc0 ca84 cc3e decb eabf
000001e0: 4ab7 b1bf 51f5 d73e 86e7 12c0 aac6 25be
000001f0: ba6f 73be eed6 fcbe 9e98 b23f c7e1 16bd
00000200: 91de 953e 4d8f 1640 7032 b2bd f497 683f
00000210: 7cb4 b2bf 5ecf 15bc 6376 e4be bdc0 c4bf
00000220: 9e7a 9e3d 809d ebbf 3fc7 fbbf 2d5b e63d
00000230: d72b 91bf bd56 ee3f 5b5e 55bd 9807 2b3f
00000240: d1f2 8c3f 0150 b23b 46af c33e 4df2 18c0
00000250: 9780 d8bd 92e8 cebe 2ec8 d73f 2e60 5e3e
00000260: bac7 8f3f 34c2 f43f add8 73bd 3f52 313f
00000270: 947a c03f 0acd a33e 6cfd 7e3f 37f2 ce3f
00000280: ae9b df3e 4478 7e3f 78a8 5ac0 9a95 51be
00000290: b203 82bf 25a3 53c0 c3c9 ecbd b796 4bbf
000002a0: 2bbc 02c0 ba2b 36be c1db fdbf 8a9b f43f
000002b0: e7b5 183f 6fa2 913f 476f 1a40 8f46 103f
000002c0: f91c 8b3f c3ad 37c0 43e7 b1bd e328 08bf
000002d0: 0ea6 a3bf 628b 8ebd 08b4 84bf ad84 3ac0
000002e0: 1ac8 b1be a887 9fbf 56e6 86bf 887e 343b
000002f0: b816 fb3e 2f0e 46bf d0a1 f8bd 92fb bc3e
00000300: 6cdc e2bf 7f7b e1bd c881 5fbf ffad 80be
00000310: 1505 afbc c79c 7fbe 0245 a340 fe60 7e3f
00000320: 078f b23f d009 b3be 011c 20bd 8e82 49be
00000330: a7fe 2b40 e558 4cbe c826 333f afc7 0940
00000340: 6cde 663e c2f2 553f a8e2 1440 bd3b e63e
00000350: 8fc4 953f 8489 a9bf d5e2 483c 5108 34bf
00000360: 531e 2a3e 9074 3fbe 4fd3 1cbd 43a9 23c0
00000370: 45f6 213e ab79 d1bf 1146 36c0 63dc e4bd
00000380: 607c 16bf ef57 b83f a640 84bd 0e90 583f
00000390: 7d14 11c0 2068 893e 2745 c8bf 7900 0bc0
000003a0: 11b5 84be 7a93 b2bf 3f72 f1bf 8c2b a63e
000003b0: efcd f4bf ffa7 a73f d97a e0bd 00e0 1bbd
000003c0: 5bee 9ebd b6df 9c3e 0373 d4bf a8f8 9fbf
000003d0: 8039 96bd 9e2f 33bf 2961 2c3e a3fc 3bbd
000003e0: f745 673e 2bf4 1b40 0a36 de3e 0bd2 953f
000003f0: c524 cebf 4b5a 273e 08e5 15bf 3bbd 2bbf

linear1.bias f4 [256]
-1.8723122 -1.0190588 -1.4270772 -1.2939285 -1.4485414 -1.9239814 -1.012026 -1.8298434
-1.9836867 -0.16034752 -1.824261 -0.7546055 -0.703808 -1.9226177 -1.5477728 -0.47293603
-1.1971323 -1.3194407 -1.8105041 -1.0315584 -2.2194695 -1.9672886 -1.3055431 -1.3728156
-0.5971262 -1.5923716 -1.0327392 -1.918402 -1.2183241 -1.437391 -1.3391786 -0.46199936
1.8679261 0.5158414 -0.89653313 -1.214759 -1.083362 -1.8369 -0.801977 -0.79221916
-1.3965114 -1.2698916 -1.4270185 -2.0307279 -1.092116 -1.1776686 -1.182716 -1.4616071
-1.7756146 0.19611444 -0.75735086 -1.8687267 -1.1667902 -1.2511793 0.93775284 -1.150274
-0.6610046 -1.5174732 -1.363568 -1.0939155 -0.9547464 0.92576385 2.7682831 -1.4327385
-0.8503939 -1.6144295 0.47532395 -1.0964003 -1.7922598 -1.3408179 -1.126232 -1.0518337
-1.953617 -1.3980647 0.6106934 -1.7516462 -1.1915674 0.33777916 -1.3642356 -2.2855725
-1.7285583 -0.36996704 -1.685583 -0.9463382 -1.9038141 -1.5361 -1.3014488 -1.362355
-2.022654 -1.9926418 -0.66277826 -1.4036694 -0.7112431 -1.2293667 -0.5187404 -1.4554492
-0.8497097 -0.29903424 -1.2081939 -2.2217457 -1.7104398 -1.1873626 -0.90721124 2.7813032
-1.0933298 -1.9819329 -1.3216392 -1.2183145 -1.3226913 -0.5416553 -1.1340972 -1.3539164
-0.4631322 -0.08281298 -1.2081552 -0.8993184 -0.5124474 -1.4241451 -0.99711555 -0.100380644
-0.7617918 -0.4089906 -0.7769642 -0.5206364 -1.2968936 -1.8061732 -0.69829863 -1.272759
-1.5503348 -1.7514292 0.20213987 -1.3625914 -1.3281677 -1.8342749 -0.846187 -1.2009026
-1.8142756 -1.1708572 -0.12101052 -1.8911306 -1.6863595 -1.2642512 -1.420512 -2.17738
-1.1406524 -1.4607155 -1.4007902 -1.3154844 -1.7015778 1.0676892 -1.0514578 -2.0550818
-1.8704586 -0.50587726 -1.4004133 -1.3225198 -0.8874948 -1.2166098 -1.5648044 -1.8294495
-1.0559657 -1.182053 -0.9211749 -1.7605497 -0.8381897 -0.9296237 -1.8269256 -1.8384873
-0.46954033 -1.1731626 -0.546133 -1.0271043 -0.68629795 0.074263856 -1.559619 -1.1899503
-1.9135106 -1.2109718 -1.7878942 -1.3267609 0.090326004 -1.7847906 -2.3216255 -1.0431426
-1.2226129 -0.7415027 -0.54886 -1.9029281 -0.5813685 -0.78674954 1.4416578 -2.0013444
-0.70018435 -1.102447 -1.1943884 -1.6528162 -1.0018461 -0.92624956 -0.88550985 -0.8469085
-0.5428816 0.49339202 -2.0441706 -1.2834738 -1.2803504 0.93368465 -0.84083736 0.8263895
-1.8738104 -1.0939227 -1.4660561 -0.91913384 -2.1163235 -1.9695413 -2.2684324 -1.8281535
-1.4953643 0.004038425 -1.0683079 -1.1138265 -0.36963284 -2.2215185 -1.1811385 0.4865937
-1.2013044 -1.433242 -0.9214308 -1.9406688 -1.4874206 -1.6201379 -0.80238557 0.7939702
-0.7224494 -1.2087644 -1.1024911 -1.4797227 0.42145896 -1.1953932 -1.4250687 -1.3396978
-0.6572979 -0.9063562 -1.6798719 -0.9113465 -1.4839352 -1.0612032 -1.3173106 -1.3682044
0.35626978 -0.94131446 -1.014164 -0.41924307 -0.79742485 -1.0738808 -1.3692034 -0.23798682
00000000: eda7 efbf 8570 82bf 77aa b6bf 739f a5bf
00000010: ce69 b9bf 0645 f6bf 118a 81bf 4f38 eabf
00000020: 72e9 fdbf 2432 24be 6281 e9bf d32d 41bf
00000030: c32c 34bf 5618 f6bf 6b1d c6bf ac24 f2be
00000040: a23b 99bf 6fe3 a8bf 99be e7bf 1b0a 84bf
00000050: ca0b 0ec0 1dd0 fbbf 091c a7bf 6cb8 afbf
00000060: 43dd 18bf d5d2 cbbf cc30 84bf 328e f5bf
00000070: 0bf2 9bbf 6efc b7bf 346a abbf 2e8b ecbe
00000080: 3418 ef3f 2f0e 043f 3283 65bf 397d 9bbf
00000090: 9bab 8abf 8a1f ebbf 5d4e 4dbf e0ce 4abf
000000a0: e3c0 b2bf cf8b a2bf 8ba8 b6bf 72f7 01c0
000000b0: 75ca 8bbf d8bd 96bf 3d63 97bf f115 bbbf
000000c0: 5747 e3bf 39d2 483e bfe1 41bf 7032 efbf
000000d0: 6259 95bf a526 a0bf 9210 703f 2e3c 93bf
000000e0: 9937 29bf 903c c2bf 6589 aebf 6c05 8cbf
000000f0: 436a 74bf dcfe 6c3f 8d2b 3140 fa63 b7bf
00000100: 6ab3 59bf a0a5 cebf a95d f33e d856 8cbf
00000110: c568 e5bf ec9f abbf 5f28 90bf 7da2 86bf
00000120: 1f10 fabf c9f3 b2bf 6756 1c3f f135 e0bf
00000130: 4885 98bf 64f1 ac3e 469f aebf d246 12c0
00000140: 6641 ddbf 526c bdbe 2fc1 d7bf 3843 72bf
00000150: 2eb0 f3bf ed9e c4bf e095 a6bf a661 aebf
00000160: 2a73 01c0 e30e ffbf d6ab 29bf 70ab b3bf
00000170: 0714 36bf e35b 9dbf 2ccc 04bf 294c babf
00000180: 9386 59bf 041b 99be 19a6 9abf 1531 0ec0
00000190: b1ef dabf 7ffb 97bf ff3e 68bf df00 3240
000001a0: 3bf2 8bbf faaf fdbf 792b a9bf bbf1 9bbf
000001b0: f34d a9bf eca9 0abf 192a 91bf 224d adbf
000001c0: aa1f edbe da99 a9bd d4a4 9abf bb39 66bf
000001d0: c12f 03bf 634a b6bf f742 7fbf 5e94 cdbd
000001e0: ca04 43bf 3767 d1be 20e7 46bf 6d48 05bf
000001f0: 9c00 a6bf af30 e7bf b3c3 32bf c4e9 a2bf
00000200: 5f71 c6bf d52e e0bf c1fd 4e3e 6569 aebf
00000210: 6601 aabf 85c9 eabf b69f 58bf 2db7 99bf
00000220: 2f3a e8bf a6de 95bf 5dd4 f7bd 9110 f2bf
00000230: a1da d7bf fcd2 a1bf 56d3 b5bf 325a 0bc0
00000240: e600 92bf baf8 babf 184d b3bf cb61 a8bf
00000250: 4dcd d9bf 0aaa 883f 2b96 86bf 7686 03c0
00000260: 306b efbf 2c81 01bf be40 b3bf 5448 a9bf
00000270: dc32 63bf dfb9 9bbf 834b c8bf 672b eabf
00000280: e229 87bf 834d 97bf 1ed2 6bbf b159 e1bf
00000290: 9a93 56bf d2fb 6dbf b3d8 e9bf 8d53 ebbf
000002a0: 9767 f0be 312a 96bf 5fcf 0bbf 2778 83bf
000002b0: 39b1 2fbf a617 983d 98a1 c7bf 4b50 98bf
000002c0: eaed f4bf 2001 9bbf b8d9 e4bf 4dd3 a9bf
000002d0: d7fc b83d 0574 e4bf 8395 14c0 b285 85bf
000002e0: 947e 9cbf 1fd3 3dbf 1782 0cbf 2693 f3bf
000002f0: 91d4 14bf 6b68 49bf 3e88 b83f 0716 00c0
00000300: 483f 33bf fc1c 8dbf b8e1 98bf 7b8f d3bf
00000310: 7e3c 80bf b11e 6dbf c6b0 62bf ffce 58bf
00000320: 4afa 0abf e19d fc3e b1d3 02c0 df48 a4bf
00000330: 86e2 a3bf f505 6f3f 1e41 57bf 438e 533f
00000340: 05d9 efbf a905 8cbf baa7 bbbf 5b4c 6bbf
00000350: d871 07c0 ee19 fcbf ff2d 11c0 ef00 eabf
00000360: 1968 bfbf c454 843b 50be 88bf de91 8ebf
00000370: 8440 bdbe 5c2d 0ec0 8c2f 97bf cf22 f93e
00000380: 58c4 99bf 7974 b7bf e4e2 6bbf d667 f8bf
00000390: cc63 bebf ae60 cfbf 2469 4dbf a241 4b3f
000003a0: 72f2 38bf cbb8 9abf 6e1e 8dbf 8e67 bdbf
000003b0: 78c9 d73e a502 99bf a768 b6bf 387b abbf
000003c0: ad44 28bf f606 68bf 0b06 d7bf 014e 69bf
000003d0: 97f1 bdbf 82d5 87bf a29d a8bf 5221 afbf
000003e0: fe68 b63e fcf9 70bf 20d0 81bf 07a7 d6be
000003f0: 0924 4cbf ed74 89bf 0f42 afbf d1b2 73be

linear2.weight f4 [256, 256]
-0.22262791 -1.3578056 -0.95926577 -0.49997976 0.16671795 0.51082987 0.11130879 0.42160544
0.32328826 0.24951728 -0.5535415 -0.12462787 0.2627899 0.103164986 -0.03878148 -0.2577223
0.48206154 -0.355863 0.3354643 -0.21910033 0.81288195 0.29209083 -0.66350853 -0.12422244
-0.104647934 0.5870164 0.26810682 0.017444193 -0.84193206 0.015225148 0.056013346 0.1888584
-0.018612929 -0.088767335 -0.22641215 0.37459528 -0.27588034 0.27806523 -0.42790174 0.3206551
-0.47085178 0.7598407 0.4593097 -0.13595082 -0.2538783 -0.7871291 -0.18900754 0.2196137
0.050426934 0.075814344 -0.08397989 -0.39440396 -0.08451501 0.024656741 -0.8730118 0.10127389
-0.44989118 0.23037906 0.2146989 0.045819163 -0.066721365 -0.7650382 -0.5991108 0.01573337
0.49039802 0.068192646 1.2993873 -0.023947084 -0.55745214 0.3642269 0.2502345 -0.13684876
-0.12737826 -1.2397338 -0.065872386 0.31702876 -0.24510927 -0.37485513 -0.6888863 -0.011749123
-0.50529647 0.19310603 0.5244466 0.1395285 -0.8149543 0.057482325 0.01870292 0.29639718
0.18547118 0.19112986 0.28153428 -1.1363688 -0.13290021 0.616439 -0.06389948 0.0476163
0.16013797 0.029984817 0.16613789 -0.15237935 0.2411593 0.063212246 0.1158004 0.29578242
0.07712937 -0.41401654 0.5227266 -0.21759214 0.13273811 0.047673486 -0.17103039 0.13672668
0.06495184 0.6815425 0.4584267 0.18743561 0.24848479 0.026950039 -0.4210328 -0.045328617
0.06048163 0.32812604 1.1477561 -0.8433705 -0.052923754 -0.19186136 0.11875558 0.33660677
0.69313496 0.28881767 -0.0019165637 -0.226519 0.2973416 0.40194866 0.27434167 0.0069514047
0.21695709 0.24752067 -0.055633742 0.47845364 0.74733794 -0.55558527 0.17656676 0.55748194
0.47364807 0.4824865 -0.12188359 -0.26358426 0.4079592 -1.1635766 0.03214228 0.105329104
0.13440824 -0.08261999 0.55576175 0.034455236 0.19589774 0.3243515 1.1803876 -0.7150604
0.18153372 -0.25235534 -0.227211 -0.19185095 0.24174502 -1.3613967 0.38809955 0.73608035
0.048040953 -0.8542518 0.49017254 -0.0042477003 0.06992225 -1.0017517 0.0060603274 -1.7409705
-0.0021540406 0.3362861 -0.2147081 0.33733764 -1.4599729 0.27282986 0.15861888 -0.17119642
0.2147217 -0.03901601 -0.00946825 -0.05530694 0.04086634 0.029441975 -1.507012 -0.09828346
0.16846403 -1.3957151 -1.6301701 0.9023653 -0.009301396 0.046429127 -0.087471455 0.31601
-0.035327196 -0.0043472084 -0.5001924 0.13472813 -0.21023598 -1.0595589 0.33645782 -0.6866071
-0.7554634 0.22609118 0.061843853 0.07846064 0.087364934 0.75276387 -0.0285621 0.15359731
0.09808198 -0.6288585 0.12110731 -0.31872374 0.122140564 -0.08970424 -0.76945555 0.46487528
0.2856492 0.30396673 -0.0083544925 -0.26253816 -0.06823325 0.39644796 0.22185856 -1.1273924
0.043010205 -0.163301 0.34191427 -0.72653717 1.2091546 -0.15734169 -0.7126051 -0.029097717
0.22553758 0.16369016 0.3666993 0.19958806 -0.042878382 -0.00898048 -0.0047197244 0.31583497
0.7338837 0.134104 -0.014049285 0.25242913 0.48176393 0.08774174 0.03333655 0.010321829
00000000: 92f8 63be 93cc adbf 7192 75bf 59fd ffbe
00000010: 1cb8 2a3e bfc5 023f ddf5 e33d abdc d73e
00000020: 0a86 a53e 7581 7f3e e5b4 0dbf e63c ffbd
00000030: 668c 863e 2a48 d33d 54d9 1ebd 2df4 83be
00000040: c5d0 f63e ad33 b6be fac1 ab3e d65b 60be
00000050: 0819 503f ee8c 953e b2db 29bf 5668 febd
00000060: a851 d6bd b546 163f 4c45 893e 20e7 8e3c
00000070: dc88 57bf e672 793c 406e 653d 1964 413e
00000080: 247a 98bc a6cb b5bd 96d8 67be f4ca bf3e
00000090: 3040 8dbe 915e 8e3e f015 dbbe e82c a43e
000000a0: 7c13 f1be ec84 423f a42a eb3e b136 0bbe
000000b0: 56fc 81be 4b81 49bf 318b 41be 6ae2 603e
000000c0: 798c 4e3d 8d44 9b3d a6fd abbd 51ef c9be
000000d0: 3516 adbd effc c93c b47d 5fbf af68 cf3d
000000e0: 2358 e6be 7de8 6b3e 07da 5b3e e0ac 3b3d
000000f0: 36a5 88bd 8bd9 43bf 535f 19bf 45e3 803c
00000100: 7315 fb3e 96a8 8b3d 5352 a63f ad2c c4bc
00000110: 2fb5 0ebf f37b ba3e bd1e 803e 1522 0cbe
00000120: 726f 02be 99af 9ebf 1ae8 86bd 9851 a23e
00000130: edfd 7abe 03ed bfbe da5a 30bf 657f 40bc
00000140: 1c5b 01bf 96bd 453e 2242 063f 8fe0 0e3e
00000150: d8a0 50bf 9672 6b3d de36 993c 5fc1 973e
00000160: 28ec 3d3e 8cb7 433e 4325 903e 8874 91bf
00000170: fe16 08be f2ce 1d3f bbdd 82bd 4f09 433d
00000180: 35fb 233e b8a2 f53c 0d20 2a3e 5509 1cbe
00000190: 77f2 763e 6c75 813d c328 ed3d cb70 973e
000001a0: 01f6 9d3d faf9 d3be 69d1 053f 79d0 5ebe
000001b0: 80ec 073e 4645 433d 9722 2fbe 1402 0c3e
000001c0: 7805 853d 9279 2e3f e8b6 ea3e 1fef 3f3e
000001d0: cc72 7e3e 54c6 dc3c 9c91 d7be 80aa 39bd
000001e0: 96bb 773d 2300 a83e ace9 923f 21e7 57bf
000001f0: 94c6 58bd 4e77 44be 2036 f33d b957 ac3e
00000200: 4b71 313f e9df 933e 3535 fbba 99f4 67be
00000210: 283d 983e 37cc cd3e 8376 8c3e 9cc8 e33b
00000220: 002a 5e3e 0f76 7d3e 35e0 63bd e0f7 f43e
00000230: 8a51 3f3f d63a 0ebf ebcd 343e 23b7 0e3f
00000240: 0082 f23e 7808 f73e 1b9e f9bd 84f4 86be
00000250: 07e0 d03e 14f0 94bf a0a7 033d c9b6 d73d
00000260: 50a2 093e ab34 a9bd 6746 0e3f ef20 0d3d
00000270: 6b99 483e 6611 a63e f116 973f 330e 37bf
00000280: fae3 393e b834 81be 00aa 68be 9374 44be
00000290: 028c 773e 3f42 aebf fcb4 c63e c36f 3c3f
000002a0: 97c6 443d 3fb0 5abf e5f7 fa3e 4b30 8bbb
000002b0: 6633 8f3d 6639 80bf b695 c63b 1fd8 debf
000002c0: ce2a 0dbb b12d ac3e 71dc 5bbe 85b7 ac3e
000002d0: 64e0 babf 5bb0 8b3e fd6c 223e 1d4e 2fbe
000002e0: 01e0 5b3e 40cf 1fbd b820 1bbc 8889 62bd
000002f0: 7763 273d 4c30 f13c c5e5 c0bf d748 c9bd
00000300: d681 2c3e cba6 b2bf 6aa9 d0bf 6a01 673f
00000310: e264 18bc 782c 3e3d 3c24 b3bd 10cc a13e
00000320: 40b3 10bd 0773 8ebb 9c0c 00bf 2cf6 093e
00000330: 1a48 57be a09f 87bf 3344 ac3e 7cc5 2fbf
00000340: 0d66 41bf 7284 673e fb4f 7d3d f9af a03d
00000350: 63ec b23d 22b5 403f 11fb e9bc 9d48 1d3e
00000360: 35df c83d dffc 20bf 1c07 f83d c22f a3be
00000370: d524 fa3d dbb6 b7bd 0afb 44bf 2204 ee3e
00000380: 9d40 923e 87a1 9b3e 48e1 08bc 676b 86be
00000390: e0bd 8bbd 3afb ca3e e42e 633e 654e 90bf
000003a0: 782b 303d 6138 27be 630f af3e 57fe 39bf
000003b0: 94c5 9a3f 2e1e 21be 4a6d 36bf 565e eebc
000003c0: 53f3 663e 659e 273e 03c0 bb3e d060 4c3e
000003d0: 3ea1 2fbd dd22 13bc eba7 9abb 1fb5 a13e
000003e0: cddf 3b3f 8f52 093e f92e 66bc 643e 813e
000003f0: c3a9 f63e f1b1 b33d e88b 083d e31c 293c

linear2.bias f4 [256]
-0.4375298 -0.66191286 -0.039341163 -0.42710957 -3.121139 -0.12382381 -0.31752583 -0.7421398
-2.0840752 -0.10120582 -0.28133294 -0.09790036 -0.04546496 -0.2599517 -0.1164044 -0.12260557
-0.13185051 -0.02651135 -0.123016655 -0.14130482 -0.50400764 -0.5865587 -0.053853646 -0.06521455
-0.39646357 -0.090661235 -0.5507092 -1.5031853 -0.056570306 -0.09495063 -0.05107294 -0.47314692
-0.27086857 1.0107511 -0.39729476 -0.33950987 -0.18613312 -0.057598952 -0.09578232 -0.8828314
-0.11409398 -0.26163688 -0.024220059 -0.012950972 0.16794825 -0.02342053 -0.7367814 -0.56336415
-0.046765167 -0.69439805 -2.89564 -0.12939084 -0.082065955 -1.4728347 -0.3196618 -0.6664278
-0.08720161 -0.5765798 -0.24543549 -1.2274767 -0.07866357 -0.065658 -0.033791203 -0.092413135
-0.009883356 -0.24522181 -0.10936738 -0.26417792 -0.07396022 -0.043241248 -0.04758851 -1.0901698
-0.57265294 -0.08574127 -0.06430415 -0.31848934 -0.22513889 -0.05694699 -0.01234815 -0.5973651
-0.3534702 -0.094658375 -0.05357085 -0.4063697 -0.50121826 -0.4897081 -0.004183486 -0.01216344
-0.0068918797 -0.6784876 -0.07491176 -0.10071544 -0.06907718 -0.81463695 -0.056801144 -1.305445
-0.10617927 -0.49282837 -0.13519605 -0.10110016 -0.7995044 -0.64833343 0.013292073 -2.1180573
-0.46637714 -0.032336347 -1.2178661 -0.6696945 -0.06318051 -0.017358107 -0.031646438 -0.059998546
-0.5396335 -0.033292398 -0.55443925 -0.043414768 -0.59528714 -0.80222744 0.0060747317 -0.9074697
-0.09886544 -0.08682136 -0.22926223 -1.1665299 -0.08118471 -0.322789 -0.051837996 -0.81760424
-0.091104716 0.0054818317 -0.016350076 -0.5082013 0.19135949 -0.0512548 -0.029958157 -0.048420787
-0.09432275 -0.087411195 -0.04469812 -0.3527715 -0.101088844 -1.1404297 -3.0301383 -0.11182057
-0.31789494 -0.46095312 -0.1943583 -0.2454529 -0.4746164 -0.027424436 -0.76380056 -1.019418
0.008049415 -0.10970008 -0.041603304 -0.053897567 -0.21867305 -0.027460318 -2.1954014 -0.41732654
-0.07760757 -0.07821355 -1.2028033 -0.4419431 -1.0143788 -0.06668445 -0.8789131 -0.02899737
-0.011672017 -0.11476375 -1.3007076 0.01132112 -0.07185343 -0.09430622 -0.5130661 -0.035684884
-0.06380494 -0.07845445 -0.043587342 -0.24315204 -0.09851426 -0.09628686 -0.09504891 -1.5937623
-0.06329889 -0.060200475 -0.50964123 -1.0057988 -0.94029164 -1.2932934 -0.67004836 -0.6511062
-0.8529397 -0.08877504 -0.09675737 -0.089705884 -0.04589505 1.2323834 -0.65481335 -0.39301464
-0.07806558 -0.4297492 0.24160431 -0.09710352 -0.040447485 0.025508562 -0.04046749 -0.10617502
-0.060949676 -0.08896554 -0.081067406 -0.54916984 -0.080081865 0.26069772 -0.62882453 -0.16296147
-0.021896416 -0.028264226 -3.077693 -0.54145056 -1.6053097 -1.2082106 -0.40218237 -0.049653932
-0.016545761 -0.16848654 -0.54353505 -0.05395102 -2.7975528 -0.06579201 -0.028834572 -0.10920098
-0.5299935 -0.5248883 -0.8446927 -0.39494053 -0.040569868 -0.08001782 -0.56011343 -1.6554918
-1.2550886 -0.10444423 -0.60426027 -0.28124723 -0.6181252 -1.057129 -0.1424849 -0.09111608
-0.106857404 -0.046567332 -0.06958234 -0.81809485 -0.11975732 -0.07527903 -0.1734066 -0.5613805
00000000: e803 e0be 1f73 29bf 3324 21bd 1bae dabe
00000010: bec0 47c0 5697 fdbd bf92 a2be e0fc 3dbf
00000020: 7d61 05c0 ff44 cfbd df0a 90be fc7f c8bd
00000030: 7739 3abd 6418 85be 6e65 eebd a118 fbbd
00000040: d203 07be 552e d9bc 28f0 fbbd 36b2 10be
00000050: a506 01bf b628 16bf a495 5cbd 358f 85bd
00000060: 46fd cabe 99ac b9bd 47fb 0cbf 6068 c0bf
00000070: 44b6 67bd 7a75 c2bd dc31 51bd 5040 f2be
00000080: 49af 8abe 4b60 813f 386a cbbe 3dd4 adbe
00000090: ae99 3ebe e1ec 6bbd 8529 c4bd 3d01 62bf
000000a0: 1baa e9bd 45f5 85be 2569 c6bc 5030 54bc
000000b0: a0fa 2b3e 69dc bfbc b59d 3cbf a238 10bf
000000c0: d58c 3fbd 12c4 31bf 2a52 39c0 087f 04be
000000d0: 3212 a8bd d985 bcbf b6aa a3be 039b 2abf
000000e0: c296 b2bd bc9a 13bf 7153 7bbe f51d 9dbf
000000f0: 5e1a a1bd b477 86bd a568 0abd 1943 bdbd
00000100: cded 21bc 6d1b 7bbe 01fc dfbd 5442 87be
00000110: 7578 97bd bc1d 31bd 2bec 42bd af8a 8bbf
00000120: 6299 12bf 1e99 afbd e5b1 83bd 0911 a3be
00000130: cf8a 66be 3f41 69bd e54f 4abc ebec 18bf
00000140: 0cfa b4be 40dc c1bd 1c6d 5bbd b00f d0be
00000150: d74f 00bf 05bb fabe a015 89bb 2a49 47bc
00000160: 47d5 e1bb 5db1 2dbf 566b 99bd e643 cebd
00000170: 5678 8dbd 0c8c 50bf 51a8 68bd d218 a7bf
00000180: 8474 d9bd 0054 fcbe d570 0abe 9a0d cfbd
00000190: 52ac 4cbf 2ef9 25bf ffc6 593c 408e 07c0
000001a0: fcc8 eebe 1e73 04bd 09e3 9bbf 1971 2bbf
000001b0: c964 81bd 9732 8ebc b29f 01bd 09c1 75bd
000001c0: 6c25 0abf 9c5d 08bd bbef 0dbf afd3 31bd
000001d0: bd64 18bf c75e 4dbf 8b0e c73b ef4f 68bf
000001e0: f779 cabd 66cf b1bd b8c3 6abe da50 95bf
000001f0: 2b44 a6bd 9a44 a5be 1454 54bd 834e 51bf
00000200: 1c95 babd f0a0 b33b 98f0 85bc 7b19 02bf
00000210: bef3 433e 8ef0 51bd cf6a f5bc e054 46bd
00000220: 492c c1bd a404 b3bd 6015 37bd 779e b4be
00000230: ab07 cfbd 9af9 91bf c9ed 41c0 2f02 e5bd
00000240: 20c3 a2be 0c02 ecbe dd05 47be 0158 7bbe
00000250: ec00 f3be 36a9 e0bc 6f88 43bf 4a7c 82bf
00000260: b2e1 033c 6faa e0bd 3a68 2abd b2c3 5cbd
00000270: d4eb 5fbe 76f4 e0bc 7581 0cc0 d3ab d5be
00000280: b8f0 9ebd 6d2e a0bd 75f5 99bf 5e46 e2be
00000290: 2ad7 81bf db91 88bd 7300 61bf e48b edbc
000002a0: fd3b 3fbc 4209 ebbd 967d a6bf 387c 393c
000002b0: e427 93bd 9f23 c1bd 4d58 03bf 502a 12bd
000002c0: 2aac 82bd baac a0bd a488 32bd d9fc 78be
000002d0: d8c1 c9bd 0c32 c5bd 01a9 c2bd 6700 ccbf
000002e0: d9a2 81bd c694 76bd d977 02bf 04be 80bf
000002f0: f4b6 70bf a38a a5bf 4a88 2bbf e5ae 26bf
00000300: 425a 5abf b0cf b5bd ba28 c6bd b8b7 b7bd
00000310: 73fc 3bbd bdbe 9d3f d9a1 27bf 3739 c9be
00000320: d9e0 9fbd 1608 dcbe 1f67 773e 36de c6bd
00000330: 43ac 25bd 55f7 d03c 3dc1 25bd 4a72 d9bd
00000340: 5ea6 79bd 9133 b6bd ab06 a6bd 6596 0cbf
00000350: f601 a4bd 2c7a 853e a5fa 20bf 5fdf 26be
00000360: 1d60 b3bc 618a e7bc ecf8 44c0 819c 0abf
00000370: ca7a cdbf a5a6 9abf d9ea cdbe ec61 4bbd
00000380: fa8a 87bc bc87 2cbe 1d25 0bbf bffb 5cbd
00000390: 1b0b 33c0 f6bd 86bd 7b36 ecbc c3a4 dfbd
000003a0: a7ad 07bf 145f 06bf c83d 58bf a535 cabe
000003b0: 972c 26bd 62e0 a3bd 9863 0fbf 28e7 d3bf
000003c0: bea6 a0bf dbe6 d5bd cdb0 1abf a3ff 8fbe
000003d0: 743d 1ebf 0150 87bf 90e7 11be 119b babd
000003e0: 0ed8 dabd 63bd 3ebd 3081 8ebd aa6e 51bf
000003f0: 5343 f5bd e42b 9abd 8091 31be a2b6 0fbf

linear3.weight f4 [1, 256]
-0.06654605 0.009879653 -0.25561732 -0.04665958 0.4641699 -0.047904987 -0.09824075 0.066380754
0.7430101 -0.210408 0.059223637 -0.041479386 -0.038601965 -0.17554714 0.052419238 0.023018729
0.016595336 -0.041617624 -0.0417503 -0.22490428 1.7875273 0.13119318 -0.023271883 -0.041883167
0.11344486 -0.039221965 0.0207176 -0.012676144 -0.24242696 -0.22200175 -0.025593432 0.291612
-0.2026901 -1.4364121 0.16634595 0.18416117 -0.23223221 -0.044980485 0.009971346 -0.11504994
-0.046122797 -0.19932665 -0.24237303 0.059024006 0.10118522 0.01600158 -0.17415936 -0.06521379
-0.04211141 0.06179209 1.0120586 -0.25508207 -0.05998799 -0.057316504 -0.20663323 -0.039131023
0.08586124 -0.18551466 -0.21649542 -0.050501328 -0.047155254 0.057333365 -0.042213157 0.040990256
-0.042909946 -1.5254551 -0.044031568 -0.20609553 -0.019618265 -0.019782376 0.05879238 0.12052757
0.039127924 -0.04554642 0.059758198 0.007184867 -0.21251571 0.055391204 0.059385717 -0.13587572
-0.0601989 -0.0138798505 -0.045083247 0.13019258 0.13021131 -0.17713493 -0.04609036 0.01648492
-0.0007955012 -0.21483482 0.054174867 -0.045391846 -0.04825201 -0.23064138 -0.042120654 0.061101854
0.059011173 0.12605816 0.058803506 0.05852115 -0.1736198 0.015291434 -0.042329546 0.21657589
-0.0015825285 0.059421804 -0.1303901 -0.20906901 0.04619819 -0.04343469 -0.04215382 0.08137166
0.15969981 -0.04080979 -0.14266677 -0.044286255 -0.47187722 -0.5081263 -0.05698003 -0.118635826
-0.022617783 -0.03412979 -0.094684005 -0.010389779 0.009990458 -0.17238672 -0.15813665 -0.23104918
-0.043103836 -0.045234833 -0.039850634 0.19557187 0.07069349 -0.041378826 -0.03901274 -0.04098443
0.05880657 0.017281845 -0.040469486 0.006598534 -0.041774333 -0.034153104 0.3303244 0.059381504
-0.9884668 -0.043828033 -0.2097591 0.05795841 0.23590761 0.040184043 0.085741304 -0.12392005
-0.041958746 -0.039805084 -0.061024304 -0.044807877 0.12687337 -0.044549957 0.057589505 0.09209037
-0.045312326 0.08869518 -0.104855046 -0.021856878 -0.07717558 -0.027507538 -0.4888134 -0.057191998
-0.04188347 -0.044646766 -0.050123386 -0.041942086 -0.045537464 -0.016079064 -0.17925768 0.0016190014
-0.042403784 -0.05865366 -0.05940456 -0.19325073 -0.22064711 -0.040019684 -0.046922483 -0.029577376
-0.04295481 0.033470802 -0.47129074 -0.1759045 -0.017971495 -0.22031973 0.2990322 -0.17118992
-0.31039554 -0.039129388 0.059081323 0.034844983 -0.043307886 -1.6980252 0.016436988 -0.08014056
-0.042867865 0.13638411 0.056290433 0.0022803366 0.059185285 -0.4926461 -0.044350084 0.11371818
0.02830034 -0.051313095 -0.22070074 -0.17757832 -0.04669939 -0.5834266 -0.16879503 -1.6591109
-0.05667368 -0.044372138 0.3228963 -0.1560787 -0.034980897 -0.09086253 0.40072834 0.05067807
-0.039128162 -0.25115323 -0.009428522 0.058017578 0.47287476 -0.042938072 -0.04202604 0.026094666
-0.18086757 -0.033651553 -0.05131975 0.20903686 0.058083624 -0.21790096 0.01774962 -0.08560024
-0.4212928 -0.04599891 -0.47484556 -0.13531639 -0.253398 -0.042234182 -0.020140767 0.059690654
-0.047100894 -0.040829312 -0.01537339 -0.27080303 -0.017138558 -0.04610359 -0.22077245 -0.065336384
00000000: 4c49 88bd 45de 213c 46e0 82be 1e1e 3fbd
00000010: ada7 ed3e 0538 44bd 7232 c9bd a2f2 873d
00000020: e935 3e3f 3275 57be 7c94 723d 4ae6 29bd
00000030: 181d 1ebd a1c2 33be 8eb5 563d c691 bc3c
00000040: f1f2 873c 3e77 2abd 5d02 2bbd 4f4d 66be
00000050: b2cd e43f 8157 063e ada4 bebc af8d 2bbd
00000060: c755 e83d 36a7 20bd f5b7 a93c 9aaf 4fbc
00000070: c63e 78be 6d54 63be 51a9 d1bc 2b4e 953e
00000080: fe8d 4fbe 5adc b7bf 9856 2a3e bf94 3c3e
00000090: 48ce 6dbe 753d 38bd db5e 233c 4e9f ebbd
000000a0: 42eb 3cbd 491c 4cbe a330 78be 28c3 713d
000000b0: 323a cf3d bf15 833c d556 32be cf8e 85bd
000000c0: 047d 2cbd b419 7d3d 238b 813f 1e9a 82be
000000d0: f7b5 75bd b6c4 6abd a997 53be da47 20bd
000000e0: 05d8 af3d 8ef7 3dbe fab0 5dbe 7bda 4ebd
000000f0: de25 41bd 64d6 6a3d b4e7 2cbd 66e5 273d
00000100: 57c2 2fbd 1d42 c3bf 725a 34bd b50a 53be
00000110: 7cb6 a0bc a60e a2bc 47d0 703d 29d7 f63d
00000120: 9a44 203d e28e 3abd 03c5 743d 086f eb3b
00000130: b89d 59be e3e1 623d 703e 733d 0123 0bbe
00000140: 1f93 76bd 5068 63bc 36a9 38bd 3451 053e
00000150: 1d56 053e dc62 35be 3fc9 3cbd 620b 873c
00000160: 2f89 50ba a9fd 5bbe 77e6 5d3d cdec 39bd
00000170: e6a3 45bd 412d 6cbe b586 2cbd f045 7a3d
00000180: b3b5 713d 6415 013e f2db 703d e0b3 6f3d
00000190: 64c9 31be ec88 7a3c bf61 2dbd 12c6 5d3e
000001a0: d86c cfba 4764 733d fb84 05be 3016 56be
000001b0: 503a 3d3d 93e8 31bd 7ca9 2cbd 2fa6 a63d
000001c0: 5988 233e 2b28 27bd 3d17 12be 8165 35bd
000001d0: e499 f1be 9114 02bf e463 69bd 57f7 f2bd
000001e0: ee48 b9bc aecb 0bbd b0e9 c1bd e439 2abc
000001f0: 05af 233c 2586 30be 93ee 21be 2898 6cbe
00000200: a68d 30bd 2948 39bd 6b3a 23bd fe43 483e
00000210: c0c7 903d d87c 29bd d3cb 1fbd 4adf 27bd
00000220: 28df 703d a892 8d3c 55c3 25bd 8438 d83b
00000230: 901b 2bbd 20e4 0bbd 4820 a93e 053a 733d
00000240: 290c 7dbf 0685 33bd 17cb 56be cc65 6d3d
00000250: c491 713e 0698 243d 2399 af3d ccc9 fdbd
00000260: efdc 2bbd a80a 23bd 9ff4 79bd 7788 37bd
00000270: 18eb 013e 047a 36bd f9e2 6b3d e099 bc3d
00000280: 6b99 39bd d2a5 b53d 3ebe d6bd 320d b3bc
00000290: 3b0e 9ebd 7d57 e1bc c045 fabe 2842 6abd
000002a0: 008e 2bbd 87df 36bd 2e4e 4dbd 77cb 2bbd
000002b0: 7e85 3abd 3eb8 83bc 538f 37be ac34 d43a
000002c0: 97af 2dbd d23e 70bd 3252 73bd 85e3 45be
000002d0: 51f1 61be aeeb 23bd ca31 40bd 414c f2bc
000002e0: 62f1 2fbd ae18 093d 054d f1be 4f20 34be
000002f0: f538 93bc 7f9b 61be c01a 993e 694c 2fbe
00000300: 2aec 9ebe 2346 20bd 42ff 713d 9db9 0e3d
00000310: 9c63 31bd e458 d9bf dda6 863c bc20 a4bd
00000320: 3796 2fbd 47a8 0b3e cc90 663d b371 153b
00000330: 456c 723d 1c3c fcbe 6fa8 35bd 14e5 e83d
00000340: 1dd6 e73c ae2d 52bd 60ff 61be 17d7 35be
00000350: dc47 3fbd 725b 15bf 9bd8 2cbe bf5d d4bf
00000360: a922 68bd 8fbf 35bd aa52 a53e 18d3 1fbe
00000370: 2148 0fbd 2216 babd 442c cd3e cf93 4f3d
00000380: da44 20bd 2897 80be 167a 1abc d7a3 6d3d
00000390: a41c f23e d5df 2fbd 7f23 2cbd 7bc4 d53c
000003a0: 5935 39be 36d6 09bd a834 52bd c20d 563e
000003b0: 18e9 6d3d 6e21 5fbe a767 913c 2e4f afbd
000003c0: b1b3 d7be 5a69 3cbd f51e f3be 6190 0abe
000003d0: 62bd 81be c0fd 2cbd 40fe a4bc 307e 743d
000003e0: deec 40bd a33c 27bd ace0 7bbc b2a6 8abe
000003f0: 2966 8cbc 1ed7 3cbd 2c12 62be 15cf 85bd
